…
tput_type":"stream","text":["Model: \"resnet50\"\n","__________________________________________________________________________________________________\n","Layer (type)                    Output Shape         Param #     Connected to                     \n","==================================================================================================\n","input_7 (InputLayer)            [(None, 32, 32, 3)]  0                                            \n","__________________________________________________________________________________________________\n","conv1_pad (ZeroPadding2D)       (None, 38, 38, 3)    0           input_7[0][0]                    \n","__________________________________________________________________________________________________\n","conv1_conv (Conv2D)             (None, 16, 16, 64)   9472        conv1_pad[0][0]                  \n","__________________________________________________________________________________________________\n","conv1_bn (BatchNormalization)   (None, 16, 16, 64)   256         conv1_conv[0][0]                 \n","__________________________________________________________________________________________________\n","conv1_relu (Activation)         (None, 16, 16, 64)   0           conv1_bn[0][0]                   \n","__________________________________________________________________________________________________\n","pool1_pad (ZeroPadding2D)       (None, 18, 18, 64)   0           conv1_relu[0][0]                 \n","__________________________________________________________________________________________________\n","pool1_pool (MaxPooling2D)       (None, 8, 8, 64)     0           pool1_pad[0][0]                  \n","__________________________________________________________________________________________________\n","conv2_block1_1_conv (Conv2D)    (None, 8, 8, 64)     4160        pool1_pool[0][0]                 \n","__________________________________________________________________________________________________\n","conv2_block1_1_bn (BatchNormali (None, 8, 8, 64)     256         conv2_block1_1_conv[0][0]        \n","__________________________________________________________________________________________________\n","conv2_block1_1_relu (Activation (None, 8, 8, 64)     0           conv2_block1_1_bn[0][0]          \n","__________________________________________________________________________________________________\n","conv2_block1_2_conv (Conv2D)    (None, 8, 8, 64)     36928       conv2_block1_1_relu[0][0]        \n","__________________________________________________________________________________________________\n","conv2_block1_2_bn (BatchNormali (None, 8, 8, 64)     256         conv2_block1_2_conv[0][0]        \n","__________________________________________________________________________________________________\n","conv2_block1_2_relu (Activation (None, 8, 8, 64)     0           conv2_block1_2_bn[0][0]          \n","__________________________________________________________________________________________________\n","conv2_block1_0_conv (Conv2D)    (None, 8, 8, 256)    16640       pool1_pool[0][0]                 \n","__________________________________________________________________________________________________\n","conv2_block1_3_conv (Conv2D)    (None, 8, 8, 256)    16640       conv2_block1_2_relu[0][0]        \n","__________________________________________________________________________________________________\n","conv2_block1_0_bn (BatchNormali (None, 8, 8, 256)    1024        conv2_block1_0_conv[0][0]        \n","__________________________________________________________________________________________________\n","conv2_block1_3_bn (BatchNormali (None, 8, 8, 256)    1024        conv2_block1_3_conv[0][0]        \n","__________________________________________________________________________________________________\n","conv2_block1_add (Add)          (None, 8, 8, 256)    0           conv2_block1_0_bn[0][0]          \n","                                                                 conv2_block1_3_bn[0][0]          \n","__________________________________________________________________________________________________\n","conv2_block1_out (Activation)   (None, 8, 8, 256)    0           conv2_block1_add[0][0]           \n","__________________________________________________________________________________________________\n","conv2_block2_1_conv (Conv2D)    (None, 8, 8, 64)     16448       conv2_block1_out[0][0]           \n","__________________________________________________________________________________________________\n","conv2_block2_1_bn (BatchNormali (None, 8, 8, 64)     256         conv2_block2_1_conv[0][0]        \n","__________________________________________________________________________________________________\n","conv2_block2_1_relu (Activation (None, 8, 8, 64)     0           conv2_block2_1_bn[0][0]          \n","__________________________________________________________________________________________________\n","conv2_block2_2_conv (Conv2D)    (None, 8, 8, 64)     36928       conv2_block2_1_relu[0][0]        \n","__________________________________________________________________________________________________\n","conv2_block2_2_bn (BatchNormali (None, 8, 8, 64)     256         conv2_block2_2_conv[0][0]        \n","__________________________________________________________________________________________________\n","conv2_block2_2_relu (Activation (None, 8, 8, 64)     0           conv2_block2_2_bn[0][0]          \n","__________________________________________________________________________________________________\n","conv2_block2_3_conv (Conv2D)    (None, 8, 8, 256)    16640       conv2_block2_2_relu[0][0]        \n","__________________________________________________________________________________________________\n","conv2_block2_3_bn (BatchNormali (None, 8, 8, 256)    1024        conv2_block2_3_conv[0][0]        \n","__________________________________________________________________________________________________\n","conv2_block2_add (Add)          (None, 8, 8, 256)    0           conv2_block1_out[0][0]           \n","                                                                 conv2_block2_3_bn[0][0]          \n","__________________________________________________________________________________________________\n","conv2_block2_out (Activation)   (None, 8, 8, 256)    0           conv2_block2_add[0][0]           \n","__________________________________________________________________________________________________\n","conv2_block3_1_conv (Conv2D)    (None, 8, 8, 64)     16448       conv2_block2_out[0][0]           \n","__________________________________________________________________________________________________\n","conv2_block3_1_bn (BatchNormali (None, 8, 8, 64)     256         conv2_block3_1_conv[0][0]        \n","__________________________________________________________________________________________________\n","conv2_block3_1_relu (Activation (None, 8, 8, 64)     0           conv2_block3_1_bn[0][0]          \n","__________________________________________________________________________________________________\n","conv2_block3_2_conv (Conv2D)    (None, 8, 8, 64)     36928       conv2_block3_1_relu[0][0]        \n","__________________________________________________________________________________________________\n","conv2_block3_2_bn (BatchNormali (None, 8, 8, 64)     256         conv2_block3_2_conv[0][0]        \n","__________________________________________________________________________________________________\n","conv2_block3_2_relu (Activation (None, 8, 8, 64)     0           conv2_block3_2_bn[0][0]          \n","__________________________________________________________________________________________________\n","conv2_block3_3_conv (Conv2D)    (None, 8, 8, 256)    16640       conv2_block3_2_relu[0][0]        \n","__________________________________________________________________________________________________\n","conv2_block3_3_bn (BatchNormali (None, 8, 8, 256)    1024        conv2_block3_3_conv[0][0]        \n","__________________________________________________________________________________________________\n","conv2_block3_add (Add)          (None, 8, 8, 256)    0           conv2_block2_out[0][0]           \n","                                                                 conv2_block3_3_bn[0][0]          \n","__________________________________________________________________________________________________\n","conv2_block3_out (Activation)   (None, 8, 8, 256)    0           conv2_block3_add[0][0]           \n","__________________________________________________________________________________________________\n","conv3_block1_1_conv (Conv2D)    (None, 4, 4, 128)    32896       conv2_block3_out[0][0]           \n","__________________________________________________________________________________________________\n","conv3_block1_1_bn (BatchNormali (None, 4, 4, 128)    512         conv3_block1_1_conv[0][0]        \n","__________________________________________________________________________________________________\n","conv3_block1_1_relu (Activation (None, 4, 4, 128)    0           conv3_block1_1_bn[0][0]          \n","__________________________________________________________________________________________________\n","conv3_block1_2_conv (Conv2D)    (None, 4, 4, 128)    147584      conv3_block1_1_relu[0][0]        \n","__________________________________________________________________________________________________\n","conv3_block1_2_bn (BatchNormali (None, 4, 4, 128)    512         conv3_block1_2_conv[0][0]        \n","__________________________________________________________________________________________________\n","conv3_block1_2_relu (Activation (None, 4, 4, 128)    0           conv3_block1_2_bn[0][0]          \n","__________________________________________________________________________________________________\n","conv3_block1_0_conv (Conv2D)    (None, 4, 4, 512)    131584      conv2_block3_out[0][0]           \n","__________________________________________________________________________________________________\n","conv3_block1_3_conv (Conv2D)    (None, 4, 4, 512)    66048       conv3_block1_2_relu[0][0]        \n","__________________________________________________________________________________________________\n","conv3_block1_0_bn (BatchNormali (None, 4, 4, 512)    2048        conv3_block1_0_conv[0][0]        \n","__________________________________________________________________________________________________\n","conv3_block1_3_bn (BatchNormali (None, 4, 4, 512)    2048        conv3_block1_3_conv[0][0]        \n","__________________________________________________________________________________________________\n","conv3_block1_add (Add)          (None, 4, 4, 512)    0           conv3_block1_0_bn[0][0]          \n","                                                                 conv3_block1_3_bn[0][0]          \n","__________________________________________________________________________________________________\n","conv3_block1_out (Activation)   (None, 4, 4, 512)    0           conv3_block1_add[0][0]           \n","__________________________________________________________________________________________________\n","conv3_block2_1_conv (Conv2D)    (None, 4, 4, 128)    65664       conv3_block1_out[0][0]           \n","__________________________________________________________________________________________________\n","conv3_block2_1_bn (BatchNormali (None, 4, 4, 128)    512         conv3_block2_1_conv[0][0]        \n","__________________________________________________________________________________________________\n","conv3_block2_1_relu (Activation (None, 4, 4, 128)    0           conv3_block2_1_bn[0][0]          \n","__________________________________________________________________________________________________\n","conv3_block2_2_conv (Conv2D)    (None, 4, 4, 128)    147584      conv3_block2_1_relu[0][0]        \n","__________________________________________________________________________________________________\n","conv3_block2_2_bn (BatchNormali (None, 4, 4, 128)    512         conv3_block2_2_conv[0][0]        \n","__________________________________________________________________________________________________\n","conv3_block2_2_relu (Activation (None, 4, 4, 128)    0           conv3_block2_2_bn[0][0]          \n","__________________________________________________________________________________________________\n","conv3_block2_3_conv (Conv2D)    (None, 4, 4, 512)    66048       conv3_block2_2_relu[0][0]        \n","__________________________________________________________________________________________________\n","conv3_block2_3_bn (BatchNormali (None, 4, 4, 512)    2048        conv3_block2_3_conv[0][0]        \n","__________________________________________________________________________________________________\n","conv3_block2_add (Add)          (None, 4, 4, 512)    0           conv3_block1_out[0][0]           \n","                                                                 conv3_block2_3_bn[0][0]          \n","__________________________________________________________________________________________________\n","conv3_block2_out (Activation)   (None, 4, 4, 512)    0           conv3_block2_add[0][0]           \n","__________________________________________________________________________________________________\n","conv3_block3_1_conv (Conv2D)    (None, 4, 4, 128)    65664       conv3_block2_out[0][0]           \n","__________________________________________________________________________________________________\n","conv3_block3_1_bn (BatchNormali (None, 4, 4, 128)    512         conv3_block3_1_conv[0][0]        \n","__________________________________________________________________________________________________\n","conv3_block3_1_relu (Activation (None, 4, 4, 128)    0           conv3_block3_1_bn[0][0]          \n","__________________________________________________________________________________________________\n","conv3_block3_2_conv (Conv2D)    (None, 4, 4, 128)    147584      conv3_block3_1_relu[0][0]        \n","__________________________________________________________________________________________________\n","conv3_block3_2_bn (BatchNormali (None, 4, 4, 128)    512         conv3_block3_2_conv[0][0]        \n","__________________________________________________________________________________________________\n","conv3_block3_2_relu (Activation (None, 4, 4, 128)    0           conv3_block3_2_bn[0][0]          \n","__________________________________________________________________________________________________\n","conv3_block3_3_conv (Conv2D)    (None, 4, 4, 512)    66048       conv3_block3_2_relu[0][0]        \n","__________________________________________________________________________________________________\n","conv3_block3_3_bn (BatchNormali (None, 4, 4, 512)    2048        conv3_block3_3_conv[0][0]        \n","__________________________________________________________________________________________________\n","conv3_block3_add (Add)          (None, 4, 4, 512)    0           conv3_block2_out[0][0]           \n","                                                                 conv3_block3_3_bn[0][0]          \n","__________________________________________________________________________________________________\n","conv3_block3_out (Activation)   (None, 4, 4, 512)    0           conv3_block3_add[0][0]           \n","__________________________________________________________________________________________________\n","conv3_block4_1_conv (Conv2D)    (None, 4, 4, 128)    65664       conv3_block3_out[0][0]           \n","__________________________________________________________________________________________________\n","conv3_block4_1_bn (BatchNormali (None, 4, 4, 128)    512         conv3_block4_1_conv[0][0]        \n","__________________________________________________________________________________________________\n","conv3_block4_1_relu (Activation (None, 4, 4, 128)    0           conv3_block4_1_bn[0][0]          \n","__________________________________________________________________________________________________\n","conv3_block4_2_conv (Conv2D)    (None, 4, 4, 128)    147584      conv3_block4_1_relu[0][0]        \n","__________________________________________________________________________________________________\n","conv3_block4_2_bn (BatchNormali (None, 4, 4, 128)    512         conv3_block4_2_conv[0][0]        \n","__________________________________________________________________________________________________\n","conv3_block4_2_relu (Activation (None, 4, 4, 128)    0           conv3_block4_2_bn[0][0]          \n","__________________________________________________________________________________________________\n","conv3_block4_3_conv (Conv2D)    (None, 4, 4, 512)    66048       conv3_block4_2_relu[0][0]        \n","__________________________________________________________________________________________________\n","conv3_block4_3_bn (BatchNormali (None, 4, 4, 512)    2048        conv3_block4_3_conv[0][0]        \n","__________________________________________________________________________________________________\n","conv3_block4_add (Add)          (None, 4, 4, 512)    0           conv3_block3_out[0][0]           \n","                                                                 conv3_block4_3_bn[0][0]          \n","__________________________________________________________________________________________________\n","conv3_block4_out (Activation)   (None, 4, 4, 512)    0           conv3_block4_add[0][0]           \n","__________________________________________________________________________________________________\n","conv4_block1_1_conv (Conv2D)    (None, 2, 2, 256)    131328      conv3_block4_out[0][0]           \n","__________________________________________________________________________________________________\n","conv4_block1_1_bn (BatchNormali (None, 2, 2, 256)    1024        conv4_block1_1_conv[0][0]        \n","__________________________________________________________________________________________________\n","conv4_block1_1_relu (Activation (None, 2, 2, 256)    0           conv4_block1_1_bn[0][0]          \n","__________________________________________________________________________________________________\n","conv4_block1_2_conv (Conv2D)    (None, 2, 2, 256)    590080      conv4_block1_1_relu[0][0]        \n","__________________________________________________________________________________________________\n","conv4_block1_2_bn (BatchNormali (None, 2, 2, 256)    1024        conv4_block1_2_conv[0][0]        \n","__________________________________________________________________________________________________\n","conv4_block1_2_relu (Activation (None, 2, 2, 256)    0           conv4_block1_2_bn[0][0]          \n","__________________________________________________________________________________________________\n","conv4_block1_0_conv (Conv2D)    (None, 2, 2, 1024)   525312      conv3_block4_out[0][0]           \n","__________________________________________________________________________________________________\n","conv4_block1_3_conv (Conv2D)    (None, 2, 2, 1024)   263168      conv4_block1_2_relu[0][0]        \n","__________________________________________________________________________________________________\n","conv4_block1_0_bn (BatchNormali (None, 2, 2, 1024)   4096        conv4_block1_0_conv[0][0]        \n","__________________________________________________________________________________________________\n","conv4_block1_3_bn (BatchNormali (None, 2, 2, 1024)   4096        conv4_block1_3_conv[0][0]        \n","__________________________________________________________________________________________________\n","conv4_block1_add (Add)          (None, 2, 2, 1024)   0           conv4_block1_0_bn[0][0]          \n","                                                                 conv4_block1_3_bn[0][0]          \n","__________________________________________________________________________________________________\n","conv4_block1_out (Activation)   (None, 2, 2, 1024)   0           conv4_block1_add[0][0]           \n","__________________________________________________________________________________________________\n","conv4_block2_1_conv (Conv2D)    (None, 2, 2, 256)    262400      conv4_block1_out[0][0]           \n","__________________________________________________________________________________________________\n","conv4_block2_1_bn (BatchNormali (None, 2, 2, 256)    1024        conv4_block2_1_conv[0][0]        \n","__________________________________________________________________________________________________\n","conv4_block2_1_relu (Activation (None, 2, 2, 256)    0           conv4_block2_1_bn[0][0]          \n","__________________________________________________________________________________________________\n","conv4_block2_2_conv (Conv2D)    (None, 2, 2, 256)    590080      conv4_block2_1_relu[0][0]        \n","__________________________________________________________________________________________________\n","conv4_block2_2_bn (BatchNormali (None, 2, 2, 256)    1024        conv4_block2_2_conv[0][0]        \n","__________________________________________________________________________________________________\n","conv4_block2_2_relu (Activation (None, 2, 2, 256)    0           conv4_block2_2_bn[0][0]          \n","__________________________________________________________________________________________________\n","conv4_block2_3_conv (Conv2D)    (None, 2, 2, 1024)   263168      conv4_block2_2_relu[0][0]        \n","__________________________________________________________________________________________________\n","conv4_block2_3_bn (BatchNormali (None, 2, 2, 1024)   4096        conv4_block2_3_conv[0][0]        \n","__________________________________________________________________________________________________\n","conv4_block2_add (Add)          (None, 2, 2, 1024)   0           conv4_block1_out[0][0]           \n","                                                                 conv4_block2_3_bn[0][0]          \n","__________________________________________________________________________________________________\n","conv4_block2_out (Activation)   (None, 2, 2, 1024)   0           conv4_block2_add[0][0]           \n","__________________________________________________________________________________________________\n","conv4_block3_1_conv (Conv2D)    (None, 2, 2, 256)    262400      conv4_block2_out[0][0]           \n","__________________________________________________________________________________________________\n","conv4_block3_1_bn (BatchNormali (None, 2, 2, 256)    1024        conv4_block3_1_conv[0][0]        \n","__________________________________________________________________________________________________\n","conv4_block3_1_relu (Activation (None, 2, 2, 256)    0           conv4_block3_1_bn[0][0]          \n","__________________________________________________________________________________________________\n","conv4_block3_2_conv (Conv2D)    (None, 2, 2, 256)    590080      conv4_block3_1_relu[0][0]        \n","__________________________________________________________________________________________________\n","conv4_block3_2_bn (BatchNormali (None, 2, 2, 256)    1024        conv4_block3_2_conv[0][0]        \n","__________________________________________________________________________________________________\n","conv4_block3_2_relu (Activation (None, 2, 2, 256)    0           conv4_block3_2_bn[0][0]          \n","__________________________________________________________________________________________________\n","conv4_block3_3_conv (Conv2D)    (None, 2, 2, 1024)   263168      conv4_block3_2_relu[0][0]        \n","__________________________________________________________________________________________________\n","conv4_block3_3_bn (BatchNormali (None, 2, 2, 1024)   4096        conv4_block3_3_conv[0][0]        \n","__________________________________________________________________________________________________\n","conv4_block3_add (Add)          (None, 2, 2, 1024)   0           conv4_block2_out[0][0]           \n","                                                                 conv4_block3_3_bn[0][0]          \n","__________________________________________________________________________________________________\n","conv4_block3_out (Activation)   (None, 2, 2, 1024)   0           conv4_block3_add[0][0]           \n","__________________________________________________________________________________________________\n","conv4_block4_1_conv (Conv2D)    (None, 2, 2, 256)    262400      conv4_block3_out[0][0]           \n","__________________________________________________________________________________________________\n","conv4_block4_1_bn (BatchNormali (None, 2, 2, 256)    1024        conv4_block4_1_conv[0][0]        \n","__________________________________________________________________________________________________\n","conv4_block4_1_relu (Activation (None, 2, 2, 256)    0           conv4_block4_1_bn[0][0]          \n","__________________________________________________________________________________________________\n","conv4_block4_2_conv (Conv2D)    (None, 2, 2, 256)    590080      conv4_block4_1_relu[0][0]        \n","__________________________________________________________________________________________________\n","conv4_block4_2_bn (BatchNormali (None, 2, 2, 256)    1024        conv4_block4_2_conv[0][0]        \n","__________________________________________________________________________________________________\n","conv4_block4_2_relu (Activation (None, 2, 2, 256)    0           conv4_block4_2_bn[0][0]          \n","__________________________________________________________________________________________________\n","conv4_block4_3_conv (Conv2D)    (None, 2, 2, 1024)   263168      conv4_block4_2_relu[0][0]        \n","__________________________________________________________________________________________________\n","conv4_block4_3_bn (BatchNormali (None, 2, 2, 1024)   4096        conv4_block4_3_conv[0][0]        \n","__________________________________________________________________________________________________\n","conv4_block4_add (Add)          (None, 2, 2, 1024)   0           conv4_block3_out[0][0]           \n","                                                                 conv4_block4_3_bn[0][0]          \n","__________________________________________________________________________________________________\n","conv4_block4_out (Activation)   (None, 2, 2, 1024)   0           conv4_block4_add[0][0]           \n","__________________________________________________________________________________________________\n","conv4_block5_1_conv (Conv2D)    (None, 2, 2, 256)    262400      conv4_block4_out[0][0]           \n","__________________________________________________________________________________________________\n","conv4_block5_1_bn (BatchNormali (None, 2, 2, 256)    1024        conv4_block5_1_conv[0][0]        \n","__________________________________________________________________________________________________\n","conv4_block5_1_relu (Activation (None, 2, 2, 256)    0           conv4_block5_1_bn[0][0]          \n","__________________________________________________________________________________________________\n","conv4_block5_2_conv (Conv2D)    (None, 2, 2, 256)    590080      conv4_block5_1_relu[0][0]        \n","__________________________________________________________________________________________________\n","conv4_block5_2_bn (BatchNormali (None, 2, 2, 256)    1024        conv4_block5_2_conv[0][0]        \n","__________________________________________________________________________________________________\n","conv4_block5_2_relu (Activation (None, 2, 2, 256)    0           conv4_block5_2_bn[0][0]          \n","__________________________________________________________________________________________________\n","conv4_block5_3_conv (Conv2D)    (None, 2, 2, 1024)   263168      conv4_block5_2_relu[0][0]        \n","__________________________________________________________________________________________________\n","conv4_block5_3_bn (BatchNormali (None, 2, 2, 1024)   4096        conv4_block5_3_conv[0][0]        \n","__________________________________________________________________________________________________\n","conv4_block5_add (Add)          (None, 2, 2, 1024)   0           conv4_block4_out[0][0]           \n","                                                                 conv4_block5_3_bn[0][0]          \n","__________________________________________________________________________________________________\n","conv4_block5_out (Activation)   (None, 2, 2, 1024)   0           conv4_block5_add[0][0]           \n","__________________________________________________________________________________________________\n","conv4_block6_1_conv (Conv2D)    (None, 2, 2, 256)    262400      conv4_block5_out[0][0]           \n","__________________________________________________________________________________________________\n","conv4_block6_1_bn (BatchNormali (None, 2, 2, 256)    1024        conv4_block6_1_conv[0][0]        \n","__________________________________________________________________________________________________\n","conv4_block6_1_relu (Activation (None, 2, 2, 256)    0           conv4_block6_1_bn[0][0]          \n","__________________________________________________________________________________________________\n","conv4_block6_2_conv (Conv2D)    (None, 2, 2, 256)    590080      conv4_block6_1_relu[0][0]        \n","__________________________________________________________________________________________________\n","conv4_block6_2_bn (BatchNormali (None, 2, 2, 256)    1024        conv4_block6_2_conv[0][0]        \n","__________________________________________________________________________________________________\n","conv4_block6_2_relu (Activation (None, 2, 2, 256)    0           conv4_block6_2_bn[0][0]          \n","__________________________________________________________________________________________________\n","conv4_block6_3_conv (Conv2D)    (None, 2, 2, 1024)   263168      conv4_block6_2_relu[0][0]        \n","__________________________________________________________________________________________________\n","conv4_block6_3_bn (BatchNormali (None, 2, 2, 1024)   4096        conv4_block6_3_conv[0][0]        \n","__________________________________________________________________________________________________\n","conv4_block6_add (Add)          (None, 2, 2, 1024)   0           conv4_block5_out[0][0]           \n","                                                                 conv4_block6_3_bn[0][0]          \n","__________________________________________________________________________________________________\n","conv4_block6_out (Activation)   (None, 2, 2, 1024)   0           conv4_block6_add[0][0]           \n","__________________________________________________________________________________________________\n","conv5_block1_1_conv (Conv2D)    (None, 1, 1, 512)    524800      conv4_block6_out[0][0]           \n","__________________________________________________________________________________________________\n","conv5_block1_1_bn (BatchNormali (None, 1, 1, 512)    2048        conv5_block1_1_conv[0][0]        \n","__________________________________________________________________________________________________\n","conv5_block1_1_relu (Activation (None, 1, 1, 512)    0           conv5_block1_1_bn[0][0]          \n","__________________________________________________________________________________________________\n","conv5_block1_2_conv (Conv2D)    (None, 1, 1, 512)    2359808     conv5_block1_1_relu[0][0]        \n","__________________________________________________________________________________________________\n","conv5_block1_2_bn (BatchNormali (None, 1, 1, 512)    2048        conv5_block1_2_conv[0][0]        \n","__________________________________________________________________________________________________\n","conv5_block1_2_relu (Activation (None, 1, 1, 512)    0           conv5_block1_2_bn[0][0]          \n","__________________________________________________________________________________________________\n","conv5_block1_0_conv (Conv2D)    (None, 1, 1, 2048)   2099200     conv4_block6_out[0][0]           \n","__________________________________________________________________________________________________\n","conv5_block1_3_conv (Conv2D)    (None, 1, 1, 2048)   1050624     conv5_block1_2_relu[0][0]        \n","__________________________________________________________________________________________________\n","conv5_block1_0_bn (BatchNormali (None, 1, 1, 2048)   8192        conv5_block1_0_conv[0][0]        \n","__________________________________________________________________________________________________\n","conv5_block1_3_bn (BatchNormali (None, 1, 1, 2048)   8192        conv5_block1_3_conv[0][0]        \n","__________________________________________________________________________________________________\n","conv5_block1_add (Add)          (None, 1, 1, 2048)   0           conv5_block1_0_bn[0][0]          \n","                                                                 conv5_block1_3_bn[0][0]          \n","__________________________________________________________________________________________________\n","conv5_block1_out (Activation)   (None, 1, 1, 2048)   0           conv5_block1_add[0][0]           \n","__________________________________________________________________________________________________\n","conv5_block2_1_conv (Conv2D)    (None, 1, 1, 512)    1049088     conv5_block1_out[0][0]           \n","__________________________________________________________________________________________________\n","conv5_block2_1_bn (BatchNormali (None, 1, 1, 512)    2048        conv5_block2_1_conv[0][0]        \n","__________________________________________________________________________________________________\n","conv5_block2_1_relu (Activation (None, 1, 1, 512)    0           conv5_block2_1_bn[0][0]          \n","__________________________________________________________________________________________________\n","conv5_block2_2_conv (Conv2D)    (None, 1, 1, 512)    2359808     conv5_block2_1_relu[0][0]        \n","__________________________________________________________________________________________________\n","conv5_block2_2_bn (BatchNormali (None, 1, 1, 512)    2048        conv5_block2_2_conv[0][0]        \n","__________________________________________________________________________________________________\n","conv5_block2_2_relu (Activation (None, 1, 1, 512)    0           conv5_block2_2_bn[0][0]          \n","__________________________________________________________________________________________________\n","conv5_block2_3_conv (Conv2D)    (None, 1, 1, 2048)   1050624     conv5_block2_2_relu[0][0]        \n","__________________________________________________________________________________________________\n","conv5_block2_3_bn (BatchNormali (None, 1, 1, 2048)   8192        conv5_block2_3_conv[0][0]        \n","__________________________________________________________________________________________________\n","conv5_block2_add (Add)          (None, 1, 1, 2048)   0           conv5_block1_out[0][0]           \n","                                                                 conv5_block2_3_bn[0][0]          \n","__________________________________________________________________________________________________\n","conv5_block2_out (Activation)   (None, 1, 1, 2048)   0           conv5_block2_add[0][0]           \n","__________________________________________________________________________________________________\n","conv5_block3_1_conv (Conv2D)    (None, 1, 1, 512)    1049088     conv5_block2_out[0][0]           \n","__________________________________________________________________________________________________\n","conv5_block3_1_bn (BatchNormali (None, 1, 1, 512)    2048        conv5_block3_1_conv[0][0]        \n","__________________________________________________________________________________________________\n","conv5_block3_1_relu (Activation (None, 1, 1, 512)    0           conv5_block3_1_bn[0][0]          \n","__________________________________________________________________________________________________\n","conv5_block3_2_conv (Conv2D)    (None, 1, 1, 512)    2359808     conv5_block3_1_relu[0][0]        \n","__________________________________________________________________________________________________\n","conv5_block3_2_bn (BatchNormali (None, 1, 1, 512)    2048        conv5_block3_2_conv[0][0]        \n","__________________________________________________________________________________________________\n","conv5_block3_2_relu (Activation (None, 1, 1, 512)    0           conv5_block3_2_bn[0][0]          \n","__________________________________________________________________________________________________\n","conv5_block3_3_conv (Conv2D)    (None, 1, 1, 2048)   1050624     conv5_block3_2_relu[0][0]        \n","__________________________________________________________________________________________________\n","conv5_block3_3_bn (BatchNormali (None, 1, 1, 2048)   8192        conv5_block3_3_conv[0][0]        \n","__________________________________________________________________________________________________\n","conv5_block3_add (Add)          (None, 1, 1, 2048)   0           conv5_block2_out[0][0]           \n","                                                                 conv5_block3_3_bn[0][0]          \n","__________________________________________________________________________________________________\n","conv5_block3_out (Activation)   (None, 1, 1, 2048)   0           conv5_block3_add[0][0]           \n","==================================================================================================\n","Total params: 23,587,712\n","Trainable params: 0\n","Non-trainable params: 23,587,712\n","__________________________________________________________________________________________________\n"],"name":"stdout"}]},{"cell_type":"code","metadata":{"id"
…
2c7kAIWyXOMk2v=s64","userId":"10125744057017928750"}},"outputId":"75128a8b-867c-49a5-c0db-f6d29c11e45c"},"source":["model_A.summary()"],"execution_count":154,"outputs":[{"output_type":"stream","text":["Model: \"CNN\"\n","_________________________________________________________________\n","Layer (type)                 Output Shape              Param #   \n","=================================================================\n","input_8 (InputLayer)         [(None, 32, 32, 3)]       0         \n","_________________________________________________________________\n","conv2d (Conv2D)              (None, 32, 32, 32)        2432      \n","_________________________________________________________________\n","activation (Activation)      (None, 32, 32, 32)        0         \n","_________________________________________________________________\n","max_pooling2d (MaxPooling2D) (None, 16, 16, 32)        0         \n","_________________________________________________________________\n","conv2d_1 (Conv2D)            (None, 16, 16, 64)        18496     \n","_________________________________________________________________\n","activation_1 (Activation)    (None, 16, 16, 64)        0         \n","_________________________________________________________________\n","max_pooling2d_1 (MaxPooling2 (None, 8, 8, 64)          0         \n","_________________________________________________________________\n","conv2d_2 (Conv2D)            (None, 8, 8, 128)         73856     \n","_________________________________________________________________\n","activation_2 (Activation)    (None, 8, 8, 128)         0         \n","_________________________________________________________________\n","max_pooling2d_2 (MaxPooling2 (None, 4, 4, 128)         0         \n","_________________________________________________________________\n","flatten_10 (Flatten)         (None, 2048)              0         \n","_________________________________________________________________\n","dense_10 (Dense)             (None, 500)               1024500   \n","_________________________________________________________________\n","dropout (Dropout)            (None, 500)               0         \n","_________________________________________________________________\n","batch_normalization (BatchNo (None, 500)               2000      \n","_________________________________________________________________\n","activation_3 (Activation)    (None, 500)               0         \n","_________________________________________________________________\n","dense_11 (Dense)             (None, 10)                5010      \n","_________________________________________________________________\n","activation_4 (Activation)    (None, 10)                0         \n","=================================================================\n","Total params: 1,126,294\n","Trainable params: 1,125,294\n","Non-trainable params: 1,000\n","_________________________________________________________________\n"],"name":"stdout"}]},{"cell_type":"code","metadata":{"id":"lw_WvFrqtQcf","executionInfo":{"status":"ok","timestamp":1617378712566,"user_tz":-540,"elapsed":9
…
