…
c7kAIWyXOMk2v=s64","userId":"10125744057017928750"}},"outputId":"8a37bba3-5213-4402-898d-ac0a3d6c249b"},"source":["model_A.summary()"],"execution_count":null,"outputs":[{"output_type":"stream","text":["Model: \"CNN\"\n","_________________________________________________________________\n","Layer (type)                 Output Shape              Param #   \n","=================================================================\n","input_2 (InputLayer)         [(None, 32, 32, 3)]       0         \n","_________________________________________________________________\n","conv2d (Conv2D)              (None, 32, 32, 32)        2432      \n","_________________________________________________________________\n","activation_2 (Activation)    (None, 32, 32, 32)        0         \n","_________________________________________________________________\n","max_pooling2d (MaxPooling2D) (None, 16, 16, 32)        0         \n","_________________________________________________________________\n","conv2d_1 (Conv2D)            (None, 16, 16, 64)        18496     \n","_________________________________________________________________\n","activation_3 (Activation)    (None, 16, 16, 64)        0         \n","_________________________________________________________________\n","max_pooling2d_1 (MaxPooling2 (None, 8, 8, 64)          0         \n","_________________________________________________________________\n","conv2d_2 (Conv2D)            (None, 8, 8, 128)         73856     \n","_________________________________________________________________\n","activation_4 (Activation)    (None, 8, 8, 128)         0         \n","_________________________________________________________________\n","max_pooling2d_2 (MaxPooling2 (None, 4, 4, 128)         0         \n","_________________________________________________________________\n","flatten_1 (Flatten)          (None, 2048)              0         \n","_________________________________________________________________\n","dense_2 (Dense)              (None, 500)               1024500   \n","_________________________________________________________________\n","dropout (Dropout)            (None, 500)               0         \n","_________________________________________________________________\n","batch_normalization (BatchNo (None, 500)               2000      \n","_________________________________________________________________\n","activation_5 (Activation)    (None, 500)               0         \n","_________________________________________________________________\n","dense_3 (Dense)              (None, 10)                5010      \n","_________________________________________________________________\n","activation_6 (Activation)    (None, 10)                0         \n","=================================================================\n","Total params: 1,126,294\n","Trainable params: 1,125,294\n","Non-trainable params: 1,000\n","_________________________________________________________________\n"],"name":"stdout"}]},{"cell_type":"code","metadata":{"id":"atR9nOdg_dmr"},"source":["model_A.compile(optimizer = tf.keras.optimizers.Adam(),\n","           
…
c7kAIWyXOMk2v=s64","userId":"10125744057017928750"}},"outputId":"cf76fd99-5bf4-4550-b9d8-8ddffbf7d11f"},"source":["model_B.summary()"],"execution_count":null,"outputs":[{"output_type":"stream","text":["Model: \"CNN\"\n","_________________________________________________________________\n","Layer (type)                 Output Shape              Param #   \n","=================================================================\n","input_3 (InputLayer)         [(None, 32, 32, 3)]       0         \n","_________________________________________________________________\n","conv2d_3 (Conv2D)            (None, 32, 32, 32)        2432      \n","_________________________________________________________________\n","activation_7 (Activation)    (None, 32, 32, 32)        0         \n","_________________________________________________________________\n","max_pooling2d_3 (MaxPooling2 (None, 16, 16, 32)        0         \n","_________________________________________________________________\n","conv2d_4 (Conv2D)            (None, 16, 16, 32)        1056      \n","_________________________________________________________________\n","activation_8 (Activation)    (None, 16, 16, 32)        0         \n","_________________________________________________________________\n","conv2d_5 (Conv2D)            (None, 16, 16, 32)        9248      \n","_________________________________________________________________\n","activation_9 (Activation)    (None, 16, 16, 32)        0         \n","_________________________________________________________________\n","conv2d_6 (Conv2D)            (None, 16, 16, 64)        2112      \n","_________________________________________________________________\n","activation_10 (Activation)   (None, 16, 16, 64)        0         \n","_________________________________________________________________\n","max_pooling2d_4 (MaxPooling2 (None, 8, 8, 64)          0         \n","_________________________________________________________________\n","conv2d_7 (Conv2D)            (None, 8, 8, 64)          4160      \n","_________________________________________________________________\n","activation_11 (Activation)   (None, 8, 8, 64)          0         \n","_________________________________________________________________\n","conv2d_8 (Conv2D)            (None, 8, 8, 64)          36928     \n","_________________________________________________________________\n","activation_12 (Activation)   (None, 8, 8, 64)          0         \n","_________________________________________________________________\n","conv2d_9 (Conv2D)            (None, 8, 8, 128)         8320      \n","_________________________________________________________________\n","activation_13 (Activation)   (None, 8, 8, 128)         0         \n","_________________________________________________________________\n","max_pooling2d_5 (MaxPooling2 (None, 4, 4, 128)         0         \n","_________________________________________________________________\n","flatten_2 (Flatten)          (None, 2048)              0         \n","_________________________________________________________________\n","dense_4 (Dense)              (None, 500)               1024500   \n","_________________________________________________________________\n","dropout_1 (Dropout)          (None, 500)               0         \n","_________________________________________________________________\n","batch_normalization_1 (Batch (None, 500)               2000      \n","_________________________________________________________________\n","activation_14 (Activation)   (None, 500)               0         \n","_________________________________________________________________\n","dense_5 (Dense)              (None, 10)                5010      \n","_________________________________________________________________\n","activation_15 (Activation)   (None, 10)                0         \n","=================================================================\n","Total params: 1,095,766\n","Trainable params: 1,094,766\n","Non-trainable params: 1,000\n","_________________________________________________________________\n"],"name":"stdout"}]},{"cell_type":"code","metadata":{"id":"OSi3-MSHzY0p"},"source":["model_B.compile(optimizer = tf.keras.optimizers.Adam(),\n","           
…
c7kAIWyXOMk2v=s64","userId":"10125744057017928750"}},"outputId":"dc95588e-6e43-47e1-8ba3-0af077e51cef"},"source":["model_C.summary()"],"execution_count":null,"outputs":[{"output_type":"stream","text":["Model: \"CNN\"\n","_________________________________________________________________\n","Layer (type)                 Output Shape              Param #   \n","=================================================================\n","input_5 (InputLayer)         [(None, 32, 32, 3)]       0         \n","_________________________________________________________________\n","conv2d_12 (Conv2D)           (None, 32, 32, 32)        2432      \n","_________________________________________________________________\n","activation_20 (Activation)   (None, 32, 32, 32)        0         \n","_________________________________________________________________\n","max_pooling2d_12 (MaxPooling (None, 16, 16, 32)        0         \n","_________________________________________________________________\n","depthwise_conv2d_7 (Depthwis (None, 16, 16, 32)        320       \n","_________________________________________________________________\n","conv2d_13 (Conv2D)           (None, 16, 16, 32)        1056      \n","_________________________________________________________________\n","activation_21 (Activation)   (None, 16, 16, 32)        0         \n","_________________________________________________________________\n","max_pooling2d_13 (MaxPooling (None, 8, 8, 32)          0         \n","_________________________________________________________________\n","depthwise_conv2d_8 (Depthwis (None, 8, 8, 32)          320       \n","_________________________________________________________________\n","conv2d_14 (Conv2D)           (None, 8, 8, 32)          1056      \n","_________________________________________________________________\n","activation_22 (Activation)   (None, 8, 8, 32)          0         \n","_________________________________________________________________\n","max_pooling2d_14 (MaxPooling (None, 4, 4, 32)          0         \n","_________________________________________________________________\n","flatten_4 (Flatten)          (None, 512)               0         \n","_________________________________________________________________\n","dense_8 (Dense)              (None, 500)               256500    \n","_________________________________________________________________\n","dropout_4 (Dropout)          (None, 500)               0         \n","_________________________________________________________________\n","batch_normalization_4 (Batch (None, 500)               2000      \n","_________________________________________________________________\n","activation_23 (Activation)   (None, 500)               0         \n","_________________________________________________________________\n","dense_9 (Dense)              (None, 10)                5010      \n","_________________________________________________________________\n","activation_24 (Activation)   (None, 10)                0         \n","=================================================================\n","Total params: 268,694\n","Trainable params: 267,694\n","Non-trainable params: 1,000\n","_________________________________________________________________\n"],"name":"stdout"}]},{"cell_type":"code","metadata":{"id":"8Q-BqRFVG5cb"},"source":["model_C.compile(optimizer = tf.keras.optimizers.Adam(),\n","               
…
