…
t_type":"stream","text":["Model: \"densenet121\"\n","__________________________________________________________________________________________________\n","Layer (type)                    Output Shape         Param #     Connected to                     \n","==================================================================================================\n","input_2 (InputLayer)            [(None, 32, 32, 3)]  0                                            \n","__________________________________________________________________________________________________\n","zero_padding2d_2 (ZeroPadding2D (None, 38, 38, 3)    0           input_2[0][0]                    \n","__________________________________________________________________________________________________\n","conv1/conv (Conv2D)             (None, 16, 16, 64)   9408        zero_padding2d_2[0][0]           \n","__________________________________________________________________________________________________\n","conv1/bn (BatchNormalization)   (None, 16, 16, 64)   256         conv1/conv[0][0]                 \n","__________________________________________________________________________________________________\n","conv1/relu (Activation)         (None, 16, 16, 64)   0           conv1/bn[0][0]                   \n","__________________________________________________________________________________________________\n","zero_padding2d_3 (ZeroPadding2D (None, 18, 18, 64)   0           conv1/relu[0][0]                 \n","__________________________________________________________________________________________________\n","pool1 (MaxPooling2D)            (None, 8, 8, 64)     0           zero_padding2d_3[0][0]           \n","__________________________________________________________________________________________________\n","conv2_block1_0_bn (BatchNormali (None, 8, 8, 64)     256         pool1[0][0]                      \n","__________________________________________________________________________________________________\n","conv2_block1_0_relu (Activation (None, 8, 8, 64)     0           conv2_block1_0_bn[0][0]          \n","__________________________________________________________________________________________________\n","conv2_block1_1_conv (Conv2D)    (None, 8, 8, 128)    8192        conv2_block1_0_relu[0][0]        \n","__________________________________________________________________________________________________\n","conv2_block1_1_bn (BatchNormali (None, 8, 8, 128)    512         conv2_block1_1_conv[0][0]        \n","__________________________________________________________________________________________________\n","conv2_block1_1_relu (Activation (None, 8, 8, 128)    0           conv2_block1_1_bn[0][0]          \n","__________________________________________________________________________________________________\n","conv2_block1_2_conv (Conv2D)    (None, 8, 8, 32)     36864       conv2_block1_1_relu[0][0]        \n","__________________________________________________________________________________________________\n","conv2_block1_concat (Concatenat (None, 8, 8, 96)     0           pool1[0][0]                      \n","                                                                 conv2_block1_2_conv[0][0]        \n","__________________________________________________________________________________________________\n","conv2_block2_0_bn (BatchNormali (None, 8, 8, 96)     384         conv2_block1_concat[0][0]        \n","__________________________________________________________________________________________________\n","conv2_block2_0_relu (Activation (None, 8, 8, 96)     0           conv2_block2_0_bn[0][0]          \n","__________________________________________________________________________________________________\n","conv2_block2_1_conv (Conv2D)    (None, 8, 8, 128)    12288       conv2_block2_0_relu[0][0]        \n","__________________________________________________________________________________________________\n","conv2_block2_1_bn (BatchNormali (None, 8, 8, 128)    512         conv2_block2_1_conv[0][0]        \n","__________________________________________________________________________________________________\n","conv2_block2_1_relu (Activation (None, 8, 8, 128)    0           conv2_block2_1_bn[0][0]          \n","__________________________________________________________________________________________________\n","conv2_block2_2_conv (Conv2D)    (None, 8, 8, 32)     36864       conv2_block2_1_relu[0][0]        \n","__________________________________________________________________________________________________\n","conv2_block2_concat (Concatenat (None, 8, 8, 128)    0           conv2_block1_concat[0][0]        \n","                                                                 conv2_block2_2_conv[0][0]        \n","__________________________________________________________________________________________________\n","conv2_block3_0_bn (BatchNormali (None, 8, 8, 128)    512         conv2_block2_concat[0][0]        \n","__________________________________________________________________________________________________\n","conv2_block3_0_relu (Activation (None, 8, 8, 128)    0           conv2_block3_0_bn[0][0]          \n","__________________________________________________________________________________________________\n","conv2_block3_1_conv (Conv2D)    (None, 8, 8, 128)    16384       conv2_block3_0_relu[0][0]        \n","__________________________________________________________________________________________________\n","conv2_block3_1_bn (BatchNormali (None, 8, 8, 128)    512         conv2_block3_1_conv[0][0]        \n","__________________________________________________________________________________________________\n","conv2_block3_1_relu (Activation (None, 8, 8, 128)    0           conv2_block3_1_bn[0][0]          \n","__________________________________________________________________________________________________\n","conv2_block3_2_conv (Conv2D)    (None, 8, 8, 32)     36864       conv2_block3_1_relu[0][0]        \n","__________________________________________________________________________________________________\n","conv2_block3_concat (Concatenat (None, 8, 8, 160)    0           conv2_block2_concat[0][0]        \n","                                                                 conv2_block3_2_conv[0][0]        \n","__________________________________________________________________________________________________\n","conv2_block4_0_bn (BatchNormali (None, 8, 8, 160)    640         conv2_block3_concat[0][0]        \n","__________________________________________________________________________________________________\n","conv2_block4_0_relu (Activation (None, 8, 8, 160)    0           conv2_block4_0_bn[0][0]          \n","__________________________________________________________________________________________________\n","conv2_block4_1_conv (Conv2D)    (None, 8, 8, 128)    20480       conv2_block4_0_relu[0][0]        \n","__________________________________________________________________________________________________\n","conv2_block4_1_bn (BatchNormali (None, 8, 8, 128)    512         conv2_block4_1_conv[0][0]        \n","__________________________________________________________________________________________________\n","conv2_block4_1_relu (Activation (None, 8, 8, 128)    0           conv2_block4_1_bn[0][0]          \n","__________________________________________________________________________________________________\n","conv2_block4_2_conv (Conv2D)    (None, 8, 8, 32)     36864       conv2_block4_1_relu[0][0]        \n","__________________________________________________________________________________________________\n","conv2_block4_concat (Concatenat (None, 8, 8, 192)    0           conv2_block3_concat[0][0]        \n","                                                                 conv2_block4_2_conv[0][0]        \n","__________________________________________________________________________________________________\n","conv2_block5_0_bn (BatchNormali (None, 8, 8, 192)    768         conv2_block4_concat[0][0]        \n","__________________________________________________________________________________________________\n","conv2_block5_0_relu (Activation (None, 8, 8, 192)    0           conv2_block5_0_bn[0][0]          \n","__________________________________________________________________________________________________\n","conv2_block5_1_conv (Conv2D)    (None, 8, 8, 128)    24576       conv2_block5_0_relu[0][0]        \n","__________________________________________________________________________________________________\n","conv2_block5_1_bn (BatchNormali (None, 8, 8, 128)    512         conv2_block5_1_conv[0][0]        \n","__________________________________________________________________________________________________\n","conv2_block5_1_relu (Activation (None, 8, 8, 128)    0           conv2_block5_1_bn[0][0]          \n","__________________________________________________________________________________________________\n","conv2_block5_2_conv (Conv2D)    (None, 8, 8, 32)     36864       conv2_block5_1_relu[0][0]        \n","__________________________________________________________________________________________________\n","conv2_block5_concat (Concatenat (None, 8, 8, 224)    0           conv2_block4_concat[0][0]        \n","                                                                 conv2_block5_2_conv[0][0]        \n","__________________________________________________________________________________________________\n","conv2_block6_0_bn (BatchNormali (None, 8, 8, 224)    896         conv2_block5_concat[0][0]        \n","__________________________________________________________________________________________________\n","conv2_block6_0_relu (Activation (None, 8, 8, 224)    0           conv2_block6_0_bn[0][0]          \n","__________________________________________________________________________________________________\n","conv2_block6_1_conv (Conv2D)    (None, 8, 8, 128)    28672       conv2_block6_0_relu[0][0]        \n","__________________________________________________________________________________________________\n","conv2_block6_1_bn (BatchNormali (None, 8, 8, 128)    512         conv2_block6_1_conv[0][0]        \n","__________________________________________________________________________________________________\n","conv2_block6_1_relu (Activation (None, 8, 8, 128)    0           conv2_block6_1_bn[0][0]          \n","__________________________________________________________________________________________________\n","conv2_block6_2_conv (Conv2D)    (None, 8, 8, 32)     36864       conv2_block6_1_relu[0][0]        \n","__________________________________________________________________________________________________\n","conv2_block6_concat (Concatenat (None, 8, 8, 256)    0           conv2_block5_concat[0][0]        \n","                                                                 conv2_block6_2_conv[0][0]        \n","__________________________________________________________________________________________________\n","pool2_bn (BatchNormalization)   (None, 8, 8, 256)    1024        conv2_block6_concat[0][0]        \n","__________________________________________________________________________________________________\n","pool2_relu (Activation)         (None, 8, 8, 256)    0           pool2_bn[0][0]                   \n","__________________________________________________________________________________________________\n","pool2_conv (Conv2D)             (None, 8, 8, 128)    32768       pool2_relu[0][0]                 \n","__________________________________________________________________________________________________\n","pool2_pool (AveragePooling2D)   (None, 4, 4, 128)    0           pool2_conv[0][0]                 \n","__________________________________________________________________________________________________\n","conv3_block1_0_bn (BatchNormali (None, 4, 4, 128)    512         pool2_pool[0][0]                 \n","__________________________________________________________________________________________________\n","conv3_block1_0_relu (Activation (None, 4, 4, 128)    0           conv3_block1_0_bn[0][0]          \n","__________________________________________________________________________________________________\n","conv3_block1_1_conv (Conv2D)    (None, 4, 4, 128)    16384       conv3_block1_0_relu[0][0]        \n","__________________________________________________________________________________________________\n","conv3_block1_1_bn (BatchNormali (None, 4, 4, 128)    512         conv3_block1_1_conv[0][0]        \n","__________________________________________________________________________________________________\n","conv3_block1_1_relu (Activation (None, 4, 4, 128)    0           conv3_block1_1_bn[0][0]          \n","__________________________________________________________________________________________________\n","conv3_block1_2_conv (Conv2D)    (None, 4, 4, 32)     36864       conv3_block1_1_relu[0][0]        \n","__________________________________________________________________________________________________\n","conv3_block1_concat (Concatenat (None, 4, 4, 160)    0           pool2_pool[0][0]                 \n","                                                                 conv3_block1_2_conv[0][0]        \n","__________________________________________________________________________________________________\n","conv3_block2_0_bn (BatchNormali (None, 4, 4, 160)    640         conv3_block1_concat[0][0]        \n","__________________________________________________________________________________________________\n","conv3_block2_0_relu (Activation (None, 4, 4, 160)    0           conv3_block2_0_bn[0][0]          \n","__________________________________________________________________________________________________\n","conv3_block2_1_conv (Conv2D)    (None, 4, 4, 128)    20480       conv3_block2_0_relu[0][0]        \n","__________________________________________________________________________________________________\n","conv3_block2_1_bn (BatchNormali (None, 4, 4, 128)    512         conv3_block2_1_conv[0][0]        \n","__________________________________________________________________________________________________\n","conv3_block2_1_relu (Activation (None, 4, 4, 128)    0           conv3_block2_1_bn[0][0]          \n","__________________________________________________________________________________________________\n","conv3_block2_2_conv (Conv2D)    (None, 4, 4, 32)     36864       conv3_block2_1_relu[0][0]        \n","__________________________________________________________________________________________________\n","conv3_block2_concat (Concatenat (None, 4, 4, 192)    0           conv3_block1_concat[0][0]        \n","                                                                 conv3_block2_2_conv[0][0]        \n","__________________________________________________________________________________________________\n","conv3_block3_0_bn (BatchNormali (None, 4, 4, 192)    768         conv3_block2_concat[0][0]        \n","__________________________________________________________________________________________________\n","conv3_block3_0_relu (Activation (None, 4, 4, 192)    0           conv3_block3_0_bn[0][0]          \n","__________________________________________________________________________________________________\n","conv3_block3_1_conv (Conv2D)    (None, 4, 4, 128)    24576       conv3_block3_0_relu[0][0]        \n","__________________________________________________________________________________________________\n","conv3_block3_1_bn (BatchNormali (None, 4, 4, 128)    512         conv3_block3_1_conv[0][0]        \n","__________________________________________________________________________________________________\n","conv3_block3_1_relu (Activation (None, 4, 4, 128)    0           conv3_block3_1_bn[0][0]          \n","__________________________________________________________________________________________________\n","conv3_block3_2_conv (Conv2D)    (None, 4, 4, 32)     36864       conv3_block3_1_relu[0][0]        \n","__________________________________________________________________________________________________\n","conv3_block3_concat (Concatenat (None, 4, 4, 224)    0           conv3_block2_concat[0][0]        \n","                                                                 conv3_block3_2_conv[0][0]        \n","__________________________________________________________________________________________________\n","conv3_block4_0_bn (BatchNormali (None, 4, 4, 224)    896         conv3_block3_concat[0][0]        \n","__________________________________________________________________________________________________\n","conv3_block4_0_relu (Activation (None, 4, 4, 224)    0           conv3_block4_0_bn[0][0]          \n","__________________________________________________________________________________________________\n","conv3_block4_1_conv (Conv2D)    (None, 4, 4, 128)    28672       conv3_block4_0_relu[0][0]        \n","__________________________________________________________________________________________________\n","conv3_block4_1_bn (BatchNormali (None, 4, 4, 128)    512         conv3_block4_1_conv[0][0]        \n","__________________________________________________________________________________________________\n","conv3_block4_1_relu (Activation (None, 4, 4, 128)    0           conv3_block4_1_bn[0][0]          \n","__________________________________________________________________________________________________\n","conv3_block4_2_conv (Conv2D)    (None, 4, 4, 32)     36864       conv3_block4_1_relu[0][0]        \n","__________________________________________________________________________________________________\n","conv3_block4_concat (Concatenat (None, 4, 4, 256)    0           conv3_block3_concat[0][0]        \n","                                                                 conv3_block4_2_conv[0][0]        \n","__________________________________________________________________________________________________\n","conv3_block5_0_bn (BatchNormali (None, 4, 4, 256)    1024        conv3_block4_concat[0][0]        \n","__________________________________________________________________________________________________\n","conv3_block5_0_relu (Activation (None, 4, 4, 256)    0           conv3_block5_0_bn[0][0]          \n","__________________________________________________________________________________________________\n","conv3_block5_1_conv (Conv2D)    (None, 4, 4, 128)    32768       conv3_block5_0_relu[0][0]        \n","__________________________________________________________________________________________________\n","conv3_block5_1_bn (BatchNormali (None, 4, 4, 128)    512         conv3_block5_1_conv[0][0]        \n","__________________________________________________________________________________________________\n","conv3_block5_1_relu (Activation (None, 4, 4, 128)    0           conv3_block5_1_bn[0][0]          \n","__________________________________________________________________________________________________\n","conv3_block5_2_conv (Conv2D)    (None, 4, 4, 32)     36864       conv3_block5_1_relu[0][0]        \n","__________________________________________________________________________________________________\n","conv3_block5_concat (Concatenat (None, 4, 4, 288)    0           conv3_block4_concat[0][0]        \n","                                                                 conv3_block5_2_conv[0][0]        \n","__________________________________________________________________________________________________\n","conv3_block6_0_bn (BatchNormali (None, 4, 4, 288)    1152        conv3_block5_concat[0][0]        \n","__________________________________________________________________________________________________\n","conv3_block6_0_relu (Activation (None, 4, 4, 288)    0           conv3_block6_0_bn[0][0]          \n","__________________________________________________________________________________________________\n","conv3_block6_1_conv (Conv2D)    (None, 4, 4, 128)    36864       conv3_block6_0_relu[0][0]        \n","__________________________________________________________________________________________________\n","conv3_block6_1_bn (BatchNormali (None, 4, 4, 128)    512         conv3_block6_1_conv[0][0]        \n","__________________________________________________________________________________________________\n","conv3_block6_1_relu (Activation (None, 4, 4, 128)    0           conv3_block6_1_bn[0][0]          \n","__________________________________________________________________________________________________\n","conv3_block6_2_conv (Conv2D)    (None, 4, 4, 32)     36864       conv3_block6_1_relu[0][0]        \n","__________________________________________________________________________________________________\n","conv3_block6_concat (Concatenat (None, 4, 4, 320)    0           conv3_block5_concat[0][0]        \n","                                                                 conv3_block6_2_conv[0][0]        \n","__________________________________________________________________________________________________\n","conv3_block7_0_bn (BatchNormali (None, 4, 4, 320)    1280        conv3_block6_concat[0][0]        \n","__________________________________________________________________________________________________\n","conv3_block7_0_relu (Activation (None, 4, 4, 320)    0           conv3_block7_0_bn[0][0]          \n","__________________________________________________________________________________________________\n","conv3_block7_1_conv (Conv2D)    (None, 4, 4, 128)    40960       conv3_block7_0_relu[0][0]        \n","__________________________________________________________________________________________________\n","conv3_block7_1_bn (BatchNormali (None, 4, 4, 128)    512         conv3_block7_1_conv[0][0]        \n","__________________________________________________________________________________________________\n","conv3_block7_1_relu (Activation (None, 4, 4, 128)    0           conv3_block7_1_bn[0][0]          \n","__________________________________________________________________________________________________\n","conv3_block7_2_conv (Conv2D)    (None, 4, 4, 32)     36864       conv3_block7_1_relu[0][0]        \n","__________________________________________________________________________________________________\n","conv3_block7_concat (Concatenat (None, 4, 4, 352)    0           conv3_block6_concat[0][0]        \n","                                                                 conv3_block7_2_conv[0][0]        \n","__________________________________________________________________________________________________\n","conv3_block8_0_bn (BatchNormali (None, 4, 4, 352)    1408        conv3_block7_concat[0][0]        \n","__________________________________________________________________________________________________\n","conv3_block8_0_relu (Activation (None, 4, 4, 352)    0           conv3_block8_0_bn[0][0]          \n","__________________________________________________________________________________________________\n","conv3_block8_1_conv (Conv2D)    (None, 4, 4, 128)    45056       conv3_block8_0_relu[0][0]        \n","__________________________________________________________________________________________________\n","conv3_block8_1_bn (BatchNormali (None, 4, 4, 128)    512         conv3_block8_1_conv[0][0]        \n","__________________________________________________________________________________________________\n","conv3_block8_1_relu (Activation (None, 4, 4, 128)    0           conv3_block8_1_bn[0][0]          \n","__________________________________________________________________________________________________\n","conv3_block8_2_conv (Conv2D)    (None, 4, 4, 32)     36864       conv3_block8_1_relu[0][0]        \n","__________________________________________________________________________________________________\n","conv3_block8_concat (Concatenat (None, 4, 4, 384)    0           conv3_block7_concat[0][0]        \n","                                                                 conv3_block8_2_conv[0][0]        \n","__________________________________________________________________________________________________\n","conv3_block9_0_bn (BatchNormali (None, 4, 4, 384)    1536        conv3_block8_concat[0][0]        \n","__________________________________________________________________________________________________\n","conv3_block9_0_relu (Activation (None, 4, 4, 384)    0           conv3_block9_0_bn[0][0]          \n","__________________________________________________________________________________________________\n","conv3_block9_1_conv (Conv2D)    (None, 4, 4, 128)    49152       conv3_block9_0_relu[0][0]        \n","__________________________________________________________________________________________________\n","conv3_block9_1_bn (BatchNormali (None, 4, 4, 128)    512         conv3_block9_1_conv[0][0]        \n","__________________________________________________________________________________________________\n","conv3_block9_1_relu (Activation (None, 4, 4, 128)    0           conv3_block9_1_bn[0][0]          \n","__________________________________________________________________________________________________\n","conv3_block9_2_conv (Conv2D)    (None, 4, 4, 32)     36864       conv3_block9_1_relu[0][0]        \n","__________________________________________________________________________________________________\n","conv3_block9_concat (Concatenat (None, 4, 4, 416)    0           conv3_block8_concat[0][0]        \n","                                                                 conv3_block9_2_conv[0][0]        \n","__________________________________________________________________________________________________\n","conv3_block10_0_bn (BatchNormal (None, 4, 4, 416)    1664        conv3_block9_concat[0][0]        \n","__________________________________________________________________________________________________\n","conv3_block10_0_relu (Activatio (None, 4, 4, 416)    0           conv3_block10_0_bn[0][0]         \n","__________________________________________________________________________________________________\n","conv3_block10_1_conv (Conv2D)   (None, 4, 4, 128)    53248       conv3_block10_0_relu[0][0]       \n","__________________________________________________________________________________________________\n","conv3_block10_1_bn (BatchNormal (None, 4, 4, 128)    512         conv3_block10_1_conv[0][0]       \n","__________________________________________________________________________________________________\n","conv3_block10_1_relu (Activatio (None, 4, 4, 128)    0           conv3_block10_1_bn[0][0]         \n","__________________________________________________________________________________________________\n","conv3_block10_2_conv (Conv2D)   (None, 4, 4, 32)     36864       conv3_block10_1_relu[0][0]       \n","__________________________________________________________________________________________________\n","conv3_block10_concat (Concatena (None, 4, 4, 448)    0           conv3_block9_concat[0][0]        \n","                                                                 conv3_block10_2_conv[0][0]       \n","__________________________________________________________________________________________________\n","conv3_block11_0_bn (BatchNormal (None, 4, 4, 448)    1792        conv3_block10_concat[0][0]       \n","__________________________________________________________________________________________________\n","conv3_block11_0_relu (Activatio (None, 4, 4, 448)    0           conv3_block11_0_bn[0][0]         \n","__________________________________________________________________________________________________\n","conv3_block11_1_conv (Conv2D)   (None, 4, 4, 128)    57344       conv3_block11_0_relu[0][0]       \n","__________________________________________________________________________________________________\n","conv3_block11_1_bn (BatchNormal (None, 4, 4, 128)    512         conv3_block11_1_conv[0][0]       \n","__________________________________________________________________________________________________\n","conv3_block11_1_relu (Activatio (None, 4, 4, 128)    0           conv3_block11_1_bn[0][0]         \n","__________________________________________________________________________________________________\n","conv3_block11_2_conv (Conv2D)   (None, 4, 4, 32)     36864       conv3_block11_1_relu[0][0]       \n","__________________________________________________________________________________________________\n","conv3_block11_concat (Concatena (None, 4, 4, 480)    0           conv3_block10_concat[0][0]       \n","                                                                 conv3_block11_2_conv[0][0]       \n","__________________________________________________________________________________________________\n","conv3_block12_0_bn (BatchNormal (None, 4, 4, 480)    1920        conv3_block11_concat[0][0]       \n","__________________________________________________________________________________________________\n","conv3_block12_0_relu (Activatio (None, 4, 4, 480)    0           conv3_block12_0_bn[0][0]         \n","__________________________________________________________________________________________________\n","conv3_block12_1_conv (Conv2D)   (None, 4, 4, 128)    61440       conv3_block12_0_relu[0][0]       \n","__________________________________________________________________________________________________\n","conv3_block12_1_bn (BatchNormal (None, 4, 4, 128)    512         conv3_block12_1_conv[0][0]       \n","__________________________________________________________________________________________________\n","conv3_block12_1_relu (Activatio (None, 4, 4, 128)    0           conv3_block12_1_bn[0][0]         \n","__________________________________________________________________________________________________\n","conv3_block12_2_conv (Conv2D)   (None, 4, 4, 32)     36864       conv3_block12_1_relu[0][0]       \n","__________________________________________________________________________________________________\n","conv3_block12_concat (Concatena (None, 4, 4, 512)    0           conv3_block11_concat[0][0]       \n","                                                                 conv3_block12_2_conv[0][0]       \n","__________________________________________________________________________________________________\n","pool3_bn (BatchNormalization)   (None, 4, 4, 512)    2048        conv3_block12_concat[0][0]       \n","__________________________________________________________________________________________________\n","pool3_relu (Activation)         (None, 4, 4, 512)    0           pool3_bn[0][0]                   \n","__________________________________________________________________________________________________\n","pool3_conv (Conv2D)             (None, 4, 4, 256)    131072      pool3_relu[0][0]                 \n","__________________________________________________________________________________________________\n","pool3_pool (AveragePooling2D)   (None, 2, 2, 256)    0           pool3_conv[0][0]                 \n","__________________________________________________________________________________________________\n","conv4_block1_0_bn (BatchNormali (None, 2, 2, 256)    1024        pool3_pool[0][0]                 \n","__________________________________________________________________________________________________\n","conv4_block1_0_relu (Activation (None, 2, 2, 256)    0           conv4_block1_0_bn[0][0]          \n","__________________________________________________________________________________________________\n","conv4_block1_1_conv (Conv2D)    (None, 2, 2, 128)    32768       conv4_block1_0_relu[0][0]        \n","__________________________________________________________________________________________________\n","conv4_block1_1_bn (BatchNormali (None, 2, 2, 128)    512         conv4_block1_1_conv[0][0]        \n","__________________________________________________________________________________________________\n","conv4_block1_1_relu (Activation (None, 2, 2, 128)    0           conv4_block1_1_bn[0][0]          \n","__________________________________________________________________________________________________\n","conv4_block1_2_conv (Conv2D)    (None, 2, 2, 32)     36864       conv4_block1_1_relu[0][0]        \n","__________________________________________________________________________________________________\n","conv4_block1_concat (Concatenat (None, 2, 2, 288)    0           pool3_pool[0][0]                 \n","                                                                 conv4_block1_2_conv[0][0]        \n","__________________________________________________________________________________________________\n","conv4_block2_0_bn (BatchNormali (None, 2, 2, 288)    1152        conv4_block1_concat[0][0]        \n","__________________________________________________________________________________________________\n","conv4_block2_0_relu (Activation (None, 2, 2, 288)    0           conv4_block2_0_bn[0][0]          \n","__________________________________________________________________________________________________\n","conv4_block2_1_conv (Conv2D)    (None, 2, 2, 128)    36864       conv4_block2_0_relu[0][0]        \n","__________________________________________________________________________________________________\n","conv4_block2_1_bn (BatchNormali (None, 2, 2, 128)    512         conv4_block2_1_conv[0][0]        \n","__________________________________________________________________________________________________\n","conv4_block2_1_relu (Activation (None, 2, 2, 128)    0           conv4_block2_1_bn[0][0]          \n","__________________________________________________________________________________________________\n","conv4_block2_2_conv (Conv2D)    (None, 2, 2, 32)     36864       conv4_block2_1_relu[0][0]        \n","__________________________________________________________________________________________________\n","conv4_block2_concat (Concatenat (None, 2, 2, 320)    0           conv4_block1_concat[0][0]        \n","                                                                 conv4_block2_2_conv[0][0]        \n","__________________________________________________________________________________________________\n","conv4_block3_0_bn (BatchNormali (None, 2, 2, 320)    1280        conv4_block2_concat[0][0]        \n","__________________________________________________________________________________________________\n","conv4_block3_0_relu (Activation (None, 2, 2, 320)    0           conv4_block3_0_bn[0][0]          \n","__________________________________________________________________________________________________\n","conv4_block3_1_conv (Conv2D)    (None, 2, 2, 128)    40960       conv4_block3_0_relu[0][0]        \n","__________________________________________________________________________________________________\n","conv4_block3_1_bn (BatchNormali (None, 2, 2, 128)    512         conv4_block3_1_conv[0][0]        \n","__________________________________________________________________________________________________\n","conv4_block3_1_relu (Activation (None, 2, 2, 128)    0           conv4_block3_1_bn[0][0]          \n","__________________________________________________________________________________________________\n","conv4_block3_2_conv (Conv2D)    (None, 2, 2, 32)     36864       conv4_block3_1_relu[0][0]        \n","__________________________________________________________________________________________________\n","conv4_block3_concat (Concatenat (None, 2, 2, 352)    0           conv4_block2_concat[0][0]        \n","                                                                 conv4_block3_2_conv[0][0]        \n","__________________________________________________________________________________________________\n","conv4_block4_0_bn (BatchNormali (None, 2, 2, 352)    1408        conv4_block3_concat[0][0]        \n","__________________________________________________________________________________________________\n","conv4_block4_0_relu (Activation (None, 2, 2, 352)    0           conv4_block4_0_bn[0][0]          \n","__________________________________________________________________________________________________\n","conv4_block4_1_conv (Conv2D)    (None, 2, 2, 128)    45056       conv4_block4_0_relu[0][0]        \n","__________________________________________________________________________________________________\n","conv4_block4_1_bn (BatchNormali (None, 2, 2, 128)    512         conv4_block4_1_conv[0][0]        \n","__________________________________________________________________________________________________\n","conv4_block4_1_relu (Activation (None, 2, 2, 128)    0           conv4_block4_1_bn[0][0]          \n","__________________________________________________________________________________________________\n","conv4_block4_2_conv (Conv2D)    (None, 2, 2, 32)     36864       conv4_block4_1_relu[0][0]        \n","__________________________________________________________________________________________________\n","conv4_block4_concat (Concatenat (None, 2, 2, 384)    0           conv4_block3_concat[0][0]        \n","                                                                 conv4_block4_2_conv[0][0]        \n","__________________________________________________________________________________________________\n","conv4_block5_0_bn (BatchNormali (None, 2, 2, 384)    1536        conv4_block4_concat[0][0]        \n","__________________________________________________________________________________________________\n","conv4_block5_0_relu (Activation (None, 2, 2, 384)    0           conv4_block5_0_bn[0][0]          \n","__________________________________________________________________________________________________\n","conv4_block5_1_conv (Conv2D)    (None, 2, 2, 128)    49152       conv4_block5_0_relu[0][0]        \n","__________________________________________________________________________________________________\n","conv4_block5_1_bn (BatchNormali (None, 2, 2, 128)    512         conv4_block5_1_conv[0][0]        \n","__________________________________________________________________________________________________\n","conv4_block5_1_relu (Activation (None, 2, 2, 128)    0           conv4_block5_1_bn[0][0]          \n","__________________________________________________________________________________________________\n","conv4_block5_2_conv (Conv2D)    (None, 2, 2, 32)     36864       conv4_block5_1_relu[0][0]        \n","__________________________________________________________________________________________________\n","conv4_block5_concat (Concatenat (None, 2, 2, 416)    0           conv4_block4_concat[0][0]        \n","                                                                 conv4_block5_2_conv[0][0]        \n","__________________________________________________________________________________________________\n","conv4_block6_0_bn (BatchNormali (None, 2, 2, 416)    1664        conv4_block5_concat[0][0]        \n","__________________________________________________________________________________________________\n","conv4_block6_0_relu (Activation (None, 2, 2, 416)    0           conv4_block6_0_bn[0][0]          \n","__________________________________________________________________________________________________\n","conv4_block6_1_conv (Conv2D)    (None, 2, 2, 128)    53248       conv4_block6_0_relu[0][0]        \n","__________________________________________________________________________________________________\n","conv4_block6_1_bn (BatchNormali (None, 2, 2, 128)    512         conv4_block6_1_conv[0][0]        \n","__________________________________________________________________________________________________\n","conv4_block6_1_relu (Activation (None, 2, 2, 128)    0           conv4_block6_1_bn[0][0]          \n","__________________________________________________________________________________________________\n","conv4_block6_2_conv (Conv2D)    (None, 2, 2, 32)     36864       conv4_block6_1_relu[0][0]        \n","__________________________________________________________________________________________________\n","conv4_block6_concat (Concatenat (None, 2, 2, 448)    0           conv4_block5_concat[0][0]        \n","                                                                 conv4_block6_2_conv[0][0]        \n","__________________________________________________________________________________________________\n","conv4_block7_0_bn (BatchNormali (None, 2, 2, 448)    1792        conv4_block6_concat[0][0]        \n","__________________________________________________________________________________________________\n","conv4_block7_0_relu (Activation (None, 2, 2, 448)    0           conv4_block7_0_bn[0][0]          \n","__________________________________________________________________________________________________\n","conv4_block7_1_conv (Conv2D)    (None, 2, 2, 128)    57344       conv4_block7_0_relu[0][0]        \n","__________________________________________________________________________________________________\n","conv4_block7_1_bn (BatchNormali (None, 2, 2, 128)    512         conv4_block7_1_conv[0][0]        \n","__________________________________________________________________________________________________\n","conv4_block7_1_relu (Activation (None, 2, 2, 128)    0           conv4_block7_1_bn[0][0]          \n","__________________________________________________________________________________________________\n","conv4_block7_2_conv (Conv2D)    (None, 2, 2, 32)     36864       conv4_block7_1_relu[0][0]        \n","__________________________________________________________________________________________________\n","conv4_block7_concat (Concatenat (None, 2, 2, 480)    0           conv4_block6_concat[0][0]        \n","                                                                 conv4_block7_2_conv[0][0]        \n","__________________________________________________________________________________________________\n","conv4_block8_0_bn (BatchNormali (None, 2, 2, 480)    1920        conv4_block7_concat[0][0]        \n","__________________________________________________________________________________________________\n","conv4_block8_0_relu (Activation (None, 2, 2, 480)    0           conv4_block8_0_bn[0][0]          \n","__________________________________________________________________________________________________\n","conv4_block8_1_conv (Conv2D)    (None, 2, 2, 128)    61440       conv4_block8_0_relu[0][0]        \n","__________________________________________________________________________________________________\n","conv4_block8_1_bn (BatchNormali (None, 2, 2, 128)    512         conv4_block8_1_conv[0][0]        \n","__________________________________________________________________________________________________\n","conv4_block8_1_relu (Activation (None, 2, 2, 128)    0           conv4_block8_1_bn[0][0]          \n","__________________________________________________________________________________________________\n","conv4_block8_2_conv (Conv2D)    (None, 2, 2, 32)     36864       conv4_block8_1_relu[0][0]        \n","__________________________________________________________________________________________________\n","conv4_block8_concat (Concatenat (None, 2, 2, 512)    0           conv4_block7_concat[0][0]        \n","                                                                 conv4_block8_2_conv[0][0]        \n","__________________________________________________________________________________________________\n","conv4_block9_0_bn (BatchNormali (None, 2, 2, 512)    2048        conv4_block8_concat[0][0]        \n","__________________________________________________________________________________________________\n","conv4_block9_0_relu (Activation (None, 2, 2, 512)    0           conv4_block9_0_bn[0][0]          \n","__________________________________________________________________________________________________\n","conv4_block9_1_conv (Conv2D)    (None, 2, 2, 128)    65536       conv4_block9_0_relu[0][0]        \n","__________________________________________________________________________________________________\n","conv4_block9_1_bn (BatchNormali (None, 2, 2, 128)    512         conv4_block9_1_conv[0][0]        \n","__________________________________________________________________________________________________\n","conv4_block9_1_relu (Activation (None, 2, 2, 128)    0           conv4_block9_1_bn[0][0]          \n","__________________________________________________________________________________________________\n","conv4_block9_2_conv (Conv2D)    (None, 2, 2, 32)     36864       conv4_block9_1_relu[0][0]        \n","__________________________________________________________________________________________________\n","conv4_block9_concat (Concatenat (None, 2, 2, 544)    0           conv4_block8_concat[0][0]        \n","                                                                 conv4_block9_2_conv[0][0]        \n","__________________________________________________________________________________________________\n","conv4_block10_0_bn (BatchNormal (None, 2, 2, 544)    2176        conv4_block9_concat[0][0]        \n","__________________________________________________________________________________________________\n","conv4_block10_0_relu (Activatio (None, 2, 2, 544)    0           conv4_block10_0_bn[0][0]         \n","__________________________________________________________________________________________________\n","conv4_block10_1_conv (Conv2D)   (None, 2, 2, 128)    69632       conv4_block10_0_relu[0][0]       \n","__________________________________________________________________________________________________\n","conv4_block10_1_bn (BatchNormal (None, 2, 2, 128)    512         conv4_block10_1_conv[0][0]       \n","__________________________________________________________________________________________________\n","conv4_block10_1_relu (Activatio (None, 2, 2, 128)    0           conv4_block10_1_bn[0][0]         \n","__________________________________________________________________________________________________\n","conv4_block10_2_conv (Conv2D)   (None, 2, 2, 32)     36864       conv4_block10_1_relu[0][0]       \n","__________________________________________________________________________________________________\n","conv4_block10_concat (Concatena (None, 2, 2, 576)    0           conv4_block9_concat[0][0]        \n","                                                                 conv4_block10_2_conv[0][0]       \n","__________________________________________________________________________________________________\n","conv4_block11_0_bn (BatchNormal (None, 2, 2, 576)    2304        conv4_block10_concat[0][0]       \n","__________________________________________________________________________________________________\n","conv4_block11_0_relu (Activatio (None, 2, 2, 576)    0           conv4_block11_0_bn[0][0]         \n","__________________________________________________________________________________________________\n","conv4_block11_1_conv (Conv2D)   (None, 2, 2, 128)    73728       conv4_block11_0_relu[0][0]       \n","__________________________________________________________________________________________________\n","conv4_block11_1_bn (BatchNormal (None, 2, 2, 128)    512         conv4_block11_1_conv[0][0]       \n","__________________________________________________________________________________________________\n","conv4_block11_1_relu (Activatio (None, 2, 2, 128)    0           conv4_block11_1_bn[0][0]         \n","__________________________________________________________________________________________________\n","conv4_block11_2_conv (Conv2D)   (None, 2, 2, 32)     36864       conv4_block11_1_relu[0][0]       \n","__________________________________________________________________________________________________\n","conv4_block11_concat (Concatena (None, 2, 2, 608)    0           conv4_block10_concat[0][0]       \n","                                                                 conv4_block11_2_conv[0][0]       \n","__________________________________________________________________________________________________\n","conv4_block12_0_bn (BatchNormal (None, 2, 2, 608)    2432        conv4_block11_concat[0][0]       \n","__________________________________________________________________________________________________\n","conv4_block12_0_relu (Activatio (None, 2, 2, 608)    0           conv4_block12_0_bn[0][0]         \n","__________________________________________________________________________________________________\n","conv4_block12_1_conv (Conv2D)   (None, 2, 2, 128)    77824       conv4_block12_0_relu[0][0]       \n","__________________________________________________________________________________________________\n","conv4_block12_1_bn (BatchNormal (None, 2, 2, 128)    512         conv4_block12_1_conv[0][0]       \n","__________________________________________________________________________________________________\n","conv4_block12_1_relu (Activatio (None, 2, 2, 128)    0           conv4_block12_1_bn[0][0]         \n","__________________________________________________________________________________________________\n","conv4_block12_2_conv (Conv2D)   (None, 2, 2, 32)     36864       conv4_block12_1_relu[0][0]       \n","__________________________________________________________________________________________________\n","conv4_block12_concat (Concatena (None, 2, 2, 640)    0           conv4_block11_concat[0][0]       \n","                                                                 conv4_block12_2_conv[0][0]       \n","__________________________________________________________________________________________________\n","conv4_block13_0_bn (BatchNormal (None, 2, 2, 640)    2560        conv4_block12_concat[0][0]       \n","__________________________________________________________________________________________________\n","conv4_block13_0_relu (Activatio (None, 2, 2, 640)    0           conv4_block13_0_bn[0][0]         \n","__________________________________________________________________________________________________\n","conv4_block13_1_conv (Conv2D)   (None, 2, 2, 128)    81920       conv4_block13_0_relu[0][0]       \n","__________________________________________________________________________________________________\n","conv4_block13_1_bn (BatchNormal (None, 2, 2, 128)    512         conv4_block13_1_conv[0][0]       \n","__________________________________________________________________________________________________\n","conv4_block13_1_relu (Activatio (None, 2, 2, 128)    0           conv4_block13_1_bn[0][0]         \n","__________________________________________________________________________________________________\n","conv4_block13_2_conv (Conv2D)   (None, 2, 2, 32)     36864       conv4_block13_1_relu[0][0]       \n","__________________________________________________________________________________________________\n","conv4_block13_concat (Concatena (None, 2, 2, 672)    0           conv4_block12_concat[0][0]       \n","                                                                 conv4_block13_2_conv[0][0]       \n","__________________________________________________________________________________________________\n","conv4_block14_0_bn (BatchNormal (None, 2, 2, 672)    2688        conv4_block13_concat[0][0]       \n","__________________________________________________________________________________________________\n","conv4_block14_0_relu (Activatio (None, 2, 2, 672)    0           conv4_block14_0_bn[0][0]         \n","__________________________________________________________________________________________________\n","conv4_block14_1_conv (Conv2D)   (None, 2, 2, 128)    86016       conv4_block14_0_relu[0][0]       \n","__________________________________________________________________________________________________\n","conv4_block14_1_bn (BatchNormal (None, 2, 2, 128)    512         conv4_block14_1_conv[0][0]       \n","__________________________________________________________________________________________________\n","conv4_block14_1_relu (Activatio (None, 2, 2, 128)    0           conv4_block14_1_bn[0][0]         \n","__________________________________________________________________________________________________\n","conv4_block14_2_conv (Conv2D)   (None, 2, 2, 32)     36864       conv4_block14_1_relu[0][0]       \n","__________________________________________________________________________________________________\n","conv4_block14_concat (Concatena (None, 2, 2, 704)    0           conv4_block13_concat[0][0]       \n","                                                                 conv4_block14_2_conv[0][0]       \n","__________________________________________________________________________________________________\n","conv4_block15_0_bn (BatchNormal (None, 2, 2, 704)    2816        conv4_block14_concat[0][0]       \n","__________________________________________________________________________________________________\n","conv4_block15_0_relu (Activatio (None, 2, 2, 704)    0           conv4_block15_0_bn[0][0]         \n","__________________________________________________________________________________________________\n","conv4_block15_1_conv (Conv2D)   (None, 2, 2, 128)    90112       conv4_block15_0_relu[0][0]       \n","__________________________________________________________________________________________________\n","conv4_block15_1_bn (BatchNormal (None, 2, 2, 128)    512         conv4_block15_1_conv[0][0]       \n","__________________________________________________________________________________________________\n","conv4_block15_1_relu (Activatio (None, 2, 2, 128)    0           conv4_block15_1_bn[0][0]         \n","__________________________________________________________________________________________________\n","conv4_block15_2_conv (Conv2D)   (None, 2, 2, 32)     36864       conv4_block15_1_relu[0][0]       \n","__________________________________________________________________________________________________\n","conv4_block15_concat (Concatena (None, 2, 2, 736)    0           conv4_block14_concat[0][0]       \n","                                                                 conv4_block15_2_conv[0][0]       \n","__________________________________________________________________________________________________\n","conv4_block16_0_bn (BatchNormal (None, 2, 2, 736)    2944        conv4_block15_concat[0][0]       \n","__________________________________________________________________________________________________\n","conv4_block16_0_relu (Activatio (None, 2, 2, 736)    0           conv4_block16_0_bn[0][0]         \n","__________________________________________________________________________________________________\n","conv4_block16_1_conv (Conv2D)   (None, 2, 2, 128)    94208       conv4_block16_0_relu[0][0]       \n","__________________________________________________________________________________________________\n","conv4_block16_1_bn (BatchNormal (None, 2, 2, 128)    512         conv4_block16_1_conv[0][0]       \n","__________________________________________________________________________________________________\n","conv4_block16_1_relu (Activatio (None, 2, 2, 128)    0           conv4_block16_1_bn[0][0]         \n","__________________________________________________________________________________________________\n","conv4_block16_2_conv (Conv2D)   (None, 2, 2, 32)     36864       conv4_block16_1_relu[0][0]       \n","__________________________________________________________________________________________________\n","conv4_block16_concat (Concatena (None, 2, 2, 768)    0           conv4_block15_concat[0][0]       \n","                                                                 conv4_block16_2_conv[0][0]       \n","__________________________________________________________________________________________________\n","conv4_block17_0_bn (BatchNormal (None, 2, 2, 768)    3072        conv4_block16_concat[0][0]       \n","__________________________________________________________________________________________________\n","conv4_block17_0_relu (Activatio (None, 2, 2, 768)    0           conv4_block17_0_bn[0][0]         \n","__________________________________________________________________________________________________\n","conv4_block17_1_conv (Conv2D)   (None, 2, 2, 128)    98304       conv4_block17_0_relu[0][0]       \n","__________________________________________________________________________________________________\n","conv4_block17_1_bn (BatchNormal (None, 2, 2, 128)    512         conv4_block17_1_conv[0][0]       \n","__________________________________________________________________________________________________\n","conv4_block17_1_relu (Activatio (None, 2, 2, 128)    0           conv4_block17_1_bn[0][0]         \n","__________________________________________________________________________________________________\n","conv4_block17_2_conv (Conv2D)   (None, 2, 2, 32)     36864       conv4_block17_1_relu[0][0]       \n","__________________________________________________________________________________________________\n","conv4_block17_concat (Concatena (None, 2, 2, 800)    0           conv4_block16_concat[0][0]       \n","                                                                 conv4_block17_2_conv[0][0]       \n","__________________________________________________________________________________________________\n","conv4_block18_0_bn (BatchNormal (None, 2, 2, 800)    3200        conv4_block17_concat[0][0]       \n","__________________________________________________________________________________________________\n","conv4_block18_0_relu (Activatio (None, 2, 2, 800)    0           conv4_block18_0_bn[0][0]         \n","__________________________________________________________________________________________________\n","conv4_block18_1_conv (Conv2D)   (None, 2, 2, 128)    102400      conv4_block18_0_relu[0][0]       \n","__________________________________________________________________________________________________\n","conv4_block18_1_bn (BatchNormal (None, 2, 2, 128)    512         conv4_block18_1_conv[0][0]       \n","__________________________________________________________________________________________________\n","conv4_block18_1_relu (Activatio (None, 2, 2, 128)    0           conv4_block18_1_bn[0][0]         \n","__________________________________________________________________________________________________\n","conv4_block18_2_conv (Conv2D)   (None, 2, 2, 32)     36864       conv4_block18_1_relu[0][0]       \n","__________________________________________________________________________________________________\n","conv4_block18_concat (Concatena (None, 2, 2, 832)    0           conv4_block17_concat[0][0]       \n","                                                                 conv4_block18_2_conv[0][0]       \n","__________________________________________________________________________________________________\n","conv4_block19_0_bn (BatchNormal (None, 2, 2, 832)    3328        conv4_block18_concat[0][0]       \n","__________________________________________________________________________________________________\n","conv4_block19_0_relu (Activatio (None, 2, 2, 832)    0           conv4_block19_0_bn[0][0]         \n","__________________________________________________________________________________________________\n","conv4_block19_1_conv (Conv2D)   (None, 2, 2, 128)    106496      conv4_block19_0_relu[0][0]       \n","__________________________________________________________________________________________________\n","conv4_block19_1_bn (BatchNormal (None, 2, 2, 128)    512         conv4_block19_1_conv[0][0]       \n","__________________________________________________________________________________________________\n","conv4_block19_1_relu (Activatio (None, 2, 2, 128)    0           conv4_block19_1_bn[0][0]         \n","__________________________________________________________________________________________________\n","conv4_block19_2_conv (Conv2D)   (None, 2, 2, 32)     36864       conv4_block19_1_relu[0][0]       \n","__________________________________________________________________________________________________\n","conv4_block19_concat (Concatena (None, 2, 2, 864)    0           conv4_block18_concat[0][0]       \n","                                                                 conv4_block19_2_conv[0][0]       \n","__________________________________________________________________________________________________\n","conv4_block20_0_bn (BatchNormal (None, 2, 2, 864)    3456        conv4_block19_concat[0][0]       \n","__________________________________________________________________________________________________\n","conv4_block20_0_relu (Activatio (None, 2, 2, 864)    0           conv4_block20_0_bn[0][0]         \n","__________________________________________________________________________________________________\n","conv4_block20_1_conv (Conv2D)   (None, 2, 2, 128)    110592      conv4_block20_0_relu[0][0]       \n","__________________________________________________________________________________________________\n","conv4_block20_1_bn (BatchNormal (None, 2, 2, 128)    512         conv4_block20_1_conv[0][0]       \n","__________________________________________________________________________________________________\n","conv4_block20_1_relu (Activatio (None, 2, 2, 128)    0           conv4_block20_1_bn[0][0]         \n","__________________________________________________________________________________________________\n","conv4_block20_2_conv (Conv2D)   (None, 2, 2, 32)     36864       conv4_block20_1_relu[0][0]       \n","__________________________________________________________________________________________________\n","conv4_block20_concat (Concatena (None, 2, 2, 896)    0           conv4_block19_concat[0][0]       \n","                                                                 conv4_block20_2_conv[0][0]       \n","__________________________________________________________________________________________________\n","conv4_block21_0_bn (BatchNormal (None, 2, 2, 896)    3584        conv4_block20_concat[0][0]       \n","__________________________________________________________________________________________________\n","conv4_block21_0_relu (Activatio (None, 2, 2, 896)    0           conv4_block21_0_bn[0][0]         \n","__________________________________________________________________________________________________\n","conv4_block21_1_conv (Conv2D)   (None, 2, 2, 128)    114688      conv4_block21_0_relu[0][0]       \n","__________________________________________________________________________________________________\n","conv4_block21_1_bn (BatchNormal (None, 2, 2, 128)    512         conv4_block21_1_conv[0][0]       \n","__________________________________________________________________________________________________\n","conv4_block21_1_relu (Activatio (None, 2, 2, 128)    0           conv4_block21_1_bn[0][0]         \n","__________________________________________________________________________________________________\n","conv4_block21_2_conv (Conv2D)   (None, 2, 2, 32)     36864       conv4_block21_1_relu[0][0]       \n","__________________________________________________________________________________________________\n","conv4_block21_concat (Concatena (None, 2, 2, 928)    0           conv4_block20_concat[0][0]       \n","                                                                 conv4_block21_2_conv[0][0]       \n","__________________________________________________________________________________________________\n","conv4_block22_0_bn (BatchNormal (None, 2, 2, 928)    3712        conv4_block21_concat[0][0]       \n","__________________________________________________________________________________________________\n","conv4_block22_0_relu (Activatio (None, 2, 2, 928)    0           conv4_block22_0_bn[0][0]         \n","__________________________________________________________________________________________________\n","conv4_block22_1_conv (Conv2D)   (None, 2, 2, 128)    118784      conv4_block22_0_relu[0][0]       \n","__________________________________________________________________________________________________\n","conv4_block22_1_bn (BatchNormal (None, 2, 2, 128)    512         conv4_block22_1_conv[0][0]       \n","__________________________________________________________________________________________________\n","conv4_block22_1_relu (Activatio (None, 2, 2, 128)    0           conv4_block22_1_bn[0][0]         \n","__________________________________________________________________________________________________\n","conv4_block22_2_conv (Conv2D)   (None, 2, 2, 32)     36864       conv4_block22_1_relu[0][0]       \n","__________________________________________________________________________________________________\n","conv4_block22_concat (Concatena (None, 2, 2, 960)    0           conv4_block21_concat[0][0]       \n","                                                                 conv4_block22_2_conv[0][0]       \n","__________________________________________________________________________________________________\n","conv4_block23_0_bn (BatchNormal (None, 2, 2, 960)    3840        conv4_block22_concat[0][0]       \n","__________________________________________________________________________________________________\n","conv4_block23_0_relu (Activatio (None, 2, 2, 960)    0           conv4_block23_0_bn[0][0]         \n","__________________________________________________________________________________________________\n","conv4_block23_1_conv (Conv2D)   (None, 2, 2, 128)    122880      conv4_block23_0_relu[0][0]       \n","__________________________________________________________________________________________________\n","conv4_block23_1_bn (BatchNormal (None, 2, 2, 128)    512         conv4_block23_1_conv[0][0]       \n","__________________________________________________________________________________________________\n","conv4_block23_1_relu (Activatio (None, 2, 2, 128)    0           conv4_block23_1_bn[0][0]         \n","__________________________________________________________________________________________________\n","conv4_block23_2_conv (Conv2D)   (None, 2, 2, 32)     36864       conv4_block23_1_relu[0][0]       \n","__________________________________________________________________________________________________\n","conv4_block23_concat (Concatena (None, 2, 2, 992)    0           conv4_block22_concat[0][0]       \n","                                                                 conv4_block23_2_conv[0][0]       \n","__________________________________________________________________________________________________\n","conv4_block24_0_bn (BatchNormal (None, 2, 2, 992)    3968        conv4_block23_concat[0][0]       \n","__________________________________________________________________________________________________\n","conv4_block24_0_relu (Activatio (None, 2, 2, 992)    0           conv4_block24_0_bn[0][0]         \n","__________________________________________________________________________________________________\n","conv4_block24_1_conv (Conv2D)   (None, 2, 2, 128)    126976      conv4_block24_0_relu[0][0]       \n","__________________________________________________________________________________________________\n","conv4_block24_1_bn (BatchNormal (None, 2, 2, 128)    512         conv4_block24_1_conv[0][0]       \n","__________________________________________________________________________________________________\n","conv4_block24_1_relu (Activatio (None, 2, 2, 128)    0           conv4_block24_1_bn[0][0]         \n","__________________________________________________________________________________________________\n","conv4_block24_2_conv (Conv2D)   (None, 2, 2, 32)     36864       conv4_block24_1_relu[0][0]       \n","__________________________________________________________________________________________________\n","conv4_block24_concat (Concatena (None, 2, 2, 1024)   0           conv4_block23_concat[0][0]       \n","                                                                 conv4_block24_2_conv[0][0]       \n","__________________________________________________________________________________________________\n","pool4_bn (BatchNormalization)   (None, 2, 2, 1024)   4096        conv4_block24_concat[0][0]       \n","__________________________________________________________________________________________________\n","pool4_relu (Activation)         (None, 2, 2, 1024)   0           pool4_bn[0][0]                   \n","__________________________________________________________________________________________________\n","pool4_conv (Conv2D)             (None, 2, 2, 512)    524288      pool4_relu[0][0]                 \n","__________________________________________________________________________________________________\n","pool4_pool (AveragePooling2D)   (None, 1, 1, 512)    0           pool4_conv[0][0]                 \n","__________________________________________________________________________________________________\n","conv5_block1_0_bn (BatchNormali (None, 1, 1, 512)    2048        pool4_pool[0][0]                 \n","__________________________________________________________________________________________________\n","conv5_block1_0_relu (Activation (None, 1, 1, 512)    0           conv5_block1_0_bn[0][0]          \n","__________________________________________________________________________________________________\n","conv5_block1_1_conv (Conv2D)    (None, 1, 1, 128)    65536       conv5_block1_0_relu[0][0]        \n","__________________________________________________________________________________________________\n","conv5_block1_1_bn (BatchNormali (None, 1, 1, 128)    512         conv5_block1_1_conv[0][0]        \n","__________________________________________________________________________________________________\n","conv5_block1_1_relu (Activation (None, 1, 1, 128)    0           conv5_block1_1_bn[0][0]          \n","__________________________________________________________________________________________________\n","conv5_block1_2_conv (Conv2D)    (None, 1, 1, 32)     36864       conv5_block1_1_relu[0][0]        \n","__________________________________________________________________________________________________\n","conv5_block1_concat (Concatenat (None, 1, 1, 544)    0           pool4_pool[0][0]                 \n","                                                                 conv5_block1_2_conv[0][0]        \n","__________________________________________________________________________________________________\n","conv5_block2_0_bn (BatchNormali (None, 1, 1, 544)    2176        conv5_block1_concat[0][0]        \n","__________________________________________________________________________________________________\n","conv5_block2_0_relu (Activation (None, 1, 1, 544)    0           conv5_block2_0_bn[0][0]          \n","__________________________________________________________________________________________________\n","conv5_block2_1_conv (Conv2D)    (None, 1, 1, 128)    69632       conv5_block2_0_relu[0][0]        \n","__________________________________________________________________________________________________\n","conv5_block2_1_bn (BatchNormali (None, 1, 1, 128)    512         conv5_block2_1_conv[0][0]        \n","__________________________________________________________________________________________________\n","conv5_block2_1_relu (Activation (None, 1, 1, 128)    0           conv5_block2_1_bn[0][0]          \n","__________________________________________________________________________________________________\n","conv5_block2_2_conv (Conv2D)    (None, 1, 1, 32)     36864       conv5_block2_1_relu[0][0]        \n","__________________________________________________________________________________________________\n","conv5_block2_concat (Concatenat (None, 1, 1, 576)    0           conv5_block1_concat[0][0]        \n","                                                                 conv5_block2_2_conv[0][0]        \n","__________________________________________________________________________________________________\n","conv5_block3_0_bn (BatchNormali (None, 1, 1, 576)    2304        conv5_block2_concat[0][0]        \n","__________________________________________________________________________________________________\n","conv5_block3_0_relu (Activation (None, 1, 1, 576)    0           conv5_block3_0_bn[0][0]          \n","__________________________________________________________________________________________________\n","conv5_block3_1_conv (Conv2D)    (None, 1, 1, 128)    73728       conv5_block3_0_relu[0][0]        \n","__________________________________________________________________________________________________\n","conv5_block3_1_bn (BatchNormali (None, 1, 1, 128)    512         conv5_block3_1_conv[0][0]        \n","__________________________________________________________________________________________________\n","conv5_block3_1_relu (Activation (None, 1, 1, 128)    0           conv5_block3_1_bn[0][0]          \n","__________________________________________________________________________________________________\n","conv5_block3_2_conv (Conv2D)    (None, 1, 1, 32)     36864       conv5_block3_1_relu[0][0]        \n","__________________________________________________________________________________________________\n","conv5_block3_concat (Concatenat (None, 1, 1, 608)    0           conv5_block2_concat[0][0]        \n","                                                                 conv5_block3_2_conv[0][0]        \n","__________________________________________________________________________________________________\n","conv5_block4_0_bn (BatchNormali (None, 1, 1, 608)    2432        conv5_block3_concat[0][0]        \n","__________________________________________________________________________________________________\n","conv5_block4_0_relu (Activation (None, 1, 1, 608)    0           conv5_block4_0_bn[0][0]          \n","__________________________________________________________________________________________________\n","conv5_block4_1_conv (Conv2D)    (None, 1, 1, 128)    77824       conv5_block4_0_relu[0][0]        \n","__________________________________________________________________________________________________\n","conv5_block4_1_bn (BatchNormali (None, 1, 1, 128)    512         conv5_block4_1_conv[0][0]        \n","__________________________________________________________________________________________________\n","conv5_block4_1_relu (Activation (None, 1, 1, 128)    0           conv5_block4_1_bn[0][0]          \n","__________________________________________________________________________________________________\n","conv5_block4_2_conv (Conv2D)    (None, 1, 1, 32)     36864       conv5_block4_1_relu[0][0]        \n","__________________________________________________________________________________________________\n","conv5_block4_concat (Concatenat (None, 1, 1, 640)    0           conv5_block3_concat[0][0]        \n","                                                                 conv5_block4_2_conv[0][0]        \n","__________________________________________________________________________________________________\n","conv5_block5_0_bn (BatchNormali (None, 1, 1, 640)    2560        conv5_block4_concat[0][0]        \n","__________________________________________________________________________________________________\n","conv5_block5_0_relu (Activation (None, 1, 1, 640)    0           conv5_block5_0_bn[0][0]          \n","__________________________________________________________________________________________________\n","conv5_block5_1_conv (Conv2D)    (None, 1, 1, 128)    81920       conv5_block5_0_relu[0][0]        \n","__________________________________________________________________________________________________\n","conv5_block5_1_bn (BatchNormali (None, 1, 1, 128)    512         conv5_block5_1_conv[0][0]        \n","__________________________________________________________________________________________________\n","conv5_block5_1_relu (Activation (None, 1, 1, 128)    0           conv5_block5_1_bn[0][0]          \n","__________________________________________________________________________________________________\n","conv5_block5_2_conv (Conv2D)    (None, 1, 1, 32)     36864       conv5_block5_1_relu[0][0]        \n","__________________________________________________________________________________________________\n","conv5_block5_concat (Concatenat (None, 1, 1, 672)    0           conv5_block4_concat[0][0]        \n","                                                                 conv5_block5_2_conv[0][0]        \n","__________________________________________________________________________________________________\n","conv5_block6_0_bn (BatchNormali (None, 1, 1, 672)    2688        conv5_block5_concat[0][0]        \n","__________________________________________________________________________________________________\n","conv5_block6_0_relu (Activation (None, 1, 1, 672)    0           conv5_block6_0_bn[0][0]          \n","__________________________________________________________________________________________________\n","conv5_block6_1_conv (Conv2D)    (None, 1, 1, 128)    86016       conv5_block6_0_relu[0][0]        \n","__________________________________________________________________________________________________\n","conv5_block6_1_bn (BatchNormali (None, 1, 1, 128)    512         conv5_block6_1_conv[0][0]        \n","__________________________________________________________________________________________________\n","conv5_block6_1_relu (Activation (None, 1, 1, 128)    0           conv5_block6_1_bn[0][0]          \n","__________________________________________________________________________________________________\n","conv5_block6_2_conv (Conv2D)    (None, 1, 1, 32)     36864       conv5_block6_1_relu[0][0]        \n","__________________________________________________________________________________________________\n","conv5_block6_concat (Concatenat (None, 1, 1, 704)    0           conv5_block5_concat[0][0]        \n","                                                                 conv5_block6_2_conv[0][0]        \n","__________________________________________________________________________________________________\n","conv5_block7_0_bn (BatchNormali (None, 1, 1, 704)    2816        conv5_block6_concat[0][0]        \n","__________________________________________________________________________________________________\n","conv5_block7_0_relu (Activation (None, 1, 1, 704)    0           conv5_block7_0_bn[0][0]          \n","__________________________________________________________________________________________________\n","conv5_block7_1_conv (Conv2D)    (None, 1, 1, 128)    90112       conv5_block7_0_relu[0][0]        \n","__________________________________________________________________________________________________\n","conv5_block7_1_bn (BatchNormali (None, 1, 1, 128)    512         conv5_block7_1_conv[0][0]        \n","__________________________________________________________________________________________________\n","conv5_block7_1_relu (Activation (None, 1, 1, 128)    0           conv5_block7_1_bn[0][0]          \n","__________________________________________________________________________________________________\n","conv5_block7_2_conv (Conv2D)    (None, 1, 1, 32)     36864       conv5_block7_1_relu[0][0]        \n","__________________________________________________________________________________________________\n","conv5_block7_concat (Concatenat (None, 1, 1, 736)    0           conv5_block6_concat[0][0]        \n","                                                                 conv5_block7_2_conv[0][0]        \n","__________________________________________________________________________________________________\n","conv5_block8_0_bn (BatchNormali (None, 1, 1, 736)    2944        conv5_block7_concat[0][0]        \n","__________________________________________________________________________________________________\n","conv5_block8_0_relu (Activation (None, 1, 1, 736)    0           conv5_block8_0_bn[0][0]          \n","__________________________________________________________________________________________________\n","conv5_block8_1_conv (Conv2D)    (None, 1, 1, 128)    94208       conv5_block8_0_relu[0][0]        \n","__________________________________________________________________________________________________\n","conv5_block8_1_bn (BatchNormali (None, 1, 1, 128)    512         conv5_block8_1_conv[0][0]        \n","__________________________________________________________________________________________________\n","conv5_block8_1_relu (Activation (None, 1, 1, 128)    0           conv5_block8_1_bn[0][0]          \n","__________________________________________________________________________________________________\n","conv5_block8_2_conv (Conv2D)    (None, 1, 1, 32)     36864       conv5_block8_1_relu[0][0]        \n","__________________________________________________________________________________________________\n","conv5_block8_concat (Concatenat (None, 1, 1, 768)    0           conv5_block7_concat[0][0]        \n","                                                                 conv5_block8_2_conv[0][0]        \n","__________________________________________________________________________________________________\n","conv5_block9_0_bn (BatchNormali (None, 1, 1, 768)    3072        conv5_block8_concat[0][0]        \n","__________________________________________________________________________________________________\n","conv5_block9_0_relu (Activation (None, 1, 1, 768)    0           conv5_block9_0_bn[0][0]          \n","__________________________________________________________________________________________________\n","conv5_block9_1_conv (Conv2D)    (None, 1, 1, 128)    98304       conv5_block9_0_relu[0][0]        \n","__________________________________________________________________________________________________\n","conv5_block9_1_bn (BatchNormali (None, 1, 1, 128)    512         conv5_block9_1_conv[0][0]        \n","__________________________________________________________________________________________________\n","conv5_block9_1_relu (Activation (None, 1, 1, 128)    0           conv5_block9_1_bn[0][0]          \n","__________________________________________________________________________________________________\n","conv5_block9_2_conv (Conv2D)    (None, 1, 1, 32)     36864       conv5_block9_1_relu[0][0]        \n","__________________________________________________________________________________________________\n","conv5_block9_concat (Concatenat (None, 1, 1, 800)    0           conv5_block8_concat[0][0]        \n","                                                                 conv5_block9_2_conv[0][0]        \n","__________________________________________________________________________________________________\n","conv5_block10_0_bn (BatchNormal (None, 1, 1, 800)    3200        conv5_block9_concat[0][0]        \n","__________________________________________________________________________________________________\n","conv5_block10_0_relu (Activatio (None, 1, 1, 800)    0           conv5_block10_0_bn[0][0]         \n","__________________________________________________________________________________________________\n","conv5_block10_1_conv (Conv2D)   (None, 1, 1, 128)    102400      conv5_block10_0_relu[0][0]       \n","__________________________________________________________________________________________________\n","conv5_block10_1_bn (BatchNormal (None, 1, 1, 128)    512         conv5_block10_1_conv[0][0]       \n","__________________________________________________________________________________________________\n","conv5_block10_1_relu (Activatio (None, 1, 1, 128)    0           conv5_block10_1_bn[0][0]         \n","__________________________________________________________________________________________________\n","conv5_block10_2_conv (Conv2D)   (None, 1, 1, 32)     36864       conv5_block10_1_relu[0][0]       \n","__________________________________________________________________________________________________\n","conv5_block10_concat (Concatena (None, 1, 1, 832)    0           conv5_block9_concat[0][0]        \n","                                                                 conv5_block10_2_conv[0][0]       \n","__________________________________________________________________________________________________\n","conv5_block11_0_bn (BatchNormal (None, 1, 1, 832)    3328        conv5_block10_concat[0][0]       \n","__________________________________________________________________________________________________\n","conv5_block11_0_relu (Activatio (None, 1, 1, 832)    0           conv5_block11_0_bn[0][0]         \n","__________________________________________________________________________________________________\n","conv5_block11_1_conv (Conv2D)   (None, 1, 1, 128)    106496      conv5_block11_0_relu[0][0]       \n","__________________________________________________________________________________________________\n","conv5_block11_1_bn (BatchNormal (None, 1, 1, 128)    512         conv5_block11_1_conv[0][0]       \n","__________________________________________________________________________________________________\n","conv5_block11_1_relu (Activatio (None, 1, 1, 128)    0           conv5_block11_1_bn[0][0]         \n","__________________________________________________________________________________________________\n","conv5_block11_2_conv (Conv2D)   (None, 1, 1, 32)     36864       conv5_block11_1_relu[0][0]       \n","__________________________________________________________________________________________________\n","conv5_block11_concat (Concatena (None, 1, 1, 864)    0           conv5_block10_concat[0][0]       \n","                                                                 conv5_block11_2_conv[0][0]       \n","__________________________________________________________________________________________________\n","conv5_block12_0_bn (BatchNormal (None, 1, 1, 864)    3456        conv5_block11_concat[0][0]       \n","__________________________________________________________________________________________________\n","conv5_block12_0_relu (Activatio (None, 1, 1, 864)    0           conv5_block12_0_bn[0][0]         \n","__________________________________________________________________________________________________\n","conv5_block12_1_conv (Conv2D)   (None, 1, 1, 128)    110592      conv5_block12_0_relu[0][0]       \n","__________________________________________________________________________________________________\n","conv5_block12_1_bn (BatchNormal (None, 1, 1, 128)    512         conv5_block12_1_conv[0][0]       \n","__________________________________________________________________________________________________\n","conv5_block12_1_relu (Activatio (None, 1, 1, 128)    0           conv5_block12_1_bn[0][0]         \n","__________________________________________________________________________________________________\n","conv5_block12_2_conv (Conv2D)   (None, 1, 1, 32)     36864       conv5_block12_1_relu[0][0]       \n","__________________________________________________________________________________________________\n","conv5_block12_concat (Concatena (None, 1, 1, 896)    0           conv5_block11_concat[0][0]       \n","                                                                 conv5_block12_2_conv[0][0]       \n","__________________________________________________________________________________________________\n","conv5_block13_0_bn (BatchNormal (None, 1, 1, 896)    3584        conv5_block12_concat[0][0]       \n","__________________________________________________________________________________________________\n","conv5_block13_0_relu (Activatio (None, 1, 1, 896)    0           conv5_block13_0_bn[0][0]         \n","__________________________________________________________________________________________________\n","conv5_block13_1_conv (Conv2D)   (None, 1, 1, 128)    114688      conv5_block13_0_relu[0][0]       \n","__________________________________________________________________________________________________\n","conv5_block13_1_bn (BatchNormal (None, 1, 1, 128)    512         conv5_block13_1_conv[0][0]       \n","__________________________________________________________________________________________________\n","conv5_block13_1_relu (Activatio (None, 1, 1, 128)    0           conv5_block13_1_bn[0][0]         \n","__________________________________________________________________________________________________\n","conv5_block13_2_conv (Conv2D)   (None, 1, 1, 32)     36864       conv5_block13_1_relu[0][0]       \n","__________________________________________________________________________________________________\n","conv5_block13_concat (Concatena (None, 1, 1, 928)    0           conv5_block12_concat[0][0]       \n","                                                                 conv5_block13_2_conv[0][0]       \n","__________________________________________________________________________________________________\n","conv5_block14_0_bn (BatchNormal (None, 1, 1, 928)    3712        conv5_block13_concat[0][0]       \n","__________________________________________________________________________________________________\n","conv5_block14_0_relu (Activatio (None, 1, 1, 928)    0           conv5_block14_0_bn[0][0]         \n","__________________________________________________________________________________________________\n","conv5_block14_1_conv (Conv2D)   (None, 1, 1, 128)    118784      conv5_block14_0_relu[0][0]       \n","__________________________________________________________________________________________________\n","conv5_block14_1_bn (BatchNormal (None, 1, 1, 128)    512         conv5_block14_1_conv[0][0]       \n","__________________________________________________________________________________________________\n","conv5_block14_1_relu (Activatio (None, 1, 1, 128)    0           conv5_block14_1_bn[0][0]         \n","__________________________________________________________________________________________________\n","conv5_block14_2_conv (Conv2D)   (None, 1, 1, 32)     36864       conv5_block14_1_relu[0][0]       \n","__________________________________________________________________________________________________\n","conv5_block14_concat (Concatena (None, 1, 1, 960)    0           conv5_block13_concat[0][0]       \n","                                                                 conv5_block14_2_conv[0][0]       \n","__________________________________________________________________________________________________\n","conv5_block15_0_bn (BatchNormal (None, 1, 1, 960)    3840        conv5_block14_concat[0][0]       \n","__________________________________________________________________________________________________\n","conv5_block15_0_relu (Activatio (None, 1, 1, 960)    0           conv5_block15_0_bn[0][0]         \n","__________________________________________________________________________________________________\n","conv5_block15_1_conv (Conv2D)   (None, 1, 1, 128)    122880      conv5_block15_0_relu[0][0]       \n","__________________________________________________________________________________________________\n","conv5_block15_1_bn (BatchNormal (None, 1, 1, 128)    512         conv5_block15_1_conv[0][0]       \n","__________________________________________________________________________________________________\n","conv5_block15_1_relu (Activatio (None, 1, 1, 128)    0           conv5_block15_1_bn[0][0]         \n","__________________________________________________________________________________________________\n","conv5_block15_2_conv (Conv2D)   (None, 1, 1, 32)     36864       conv5_block15_1_relu[0][0]       \n","__________________________________________________________________________________________________\n","conv5_block15_concat (Concatena (None, 1, 1, 992)    0           conv5_block14_concat[0][0]       \n","                                                                 conv5_block15_2_conv[0][0]       \n","__________________________________________________________________________________________________\n","conv5_block16_0_bn (BatchNormal (None, 1, 1, 992)    3968        conv5_block15_concat[0][0]       \n","__________________________________________________________________________________________________\n","conv5_block16_0_relu (Activatio (None, 1, 1, 992)    0           conv5_block16_0_bn[0][0]         \n","__________________________________________________________________________________________________\n","conv5_block16_1_conv (Conv2D)   (None, 1, 1, 128)    126976      conv5_block16_0_relu[0][0]       \n","__________________________________________________________________________________________________\n","conv5_block16_1_bn (BatchNormal (None, 1, 1, 128)    512         conv5_block16_1_conv[0][0]       \n","__________________________________________________________________________________________________\n","conv5_block16_1_relu (Activatio (None, 1, 1, 128)    0           conv5_block16_1_bn[0][0]         \n","__________________________________________________________________________________________________\n","conv5_block16_2_conv (Conv2D)   (None, 1, 1, 32)     36864       conv5_block16_1_relu[0][0]       \n","__________________________________________________________________________________________________\n","conv5_block16_concat (Concatena (None, 1, 1, 1024)   0           conv5_block15_concat[0][0]       \n","                                                                 conv5_block16_2_conv[0][0]       \n","__________________________________________________________________________________________________\n","bn (BatchNormalization)         (None, 1, 1, 1024)   4096        conv5_block16_concat[0][0]       \n","__________________________________________________________________________________________________\n","relu (Activation)               (None, 1, 1, 1024)   0           bn[0][0]                         \n","==================================================================================================\n","Total params: 7,037,504\n","Trainable params: 6,953,856\n","Non-trainable params: 83,648\n","__________________________________________________________________________________________________\n"],"name":"stdout"}]},{"cell_type":"code","metadata":{"
…
e":"stream","text":["Model: \"self_made_resnet\"\n","__________________________________________________________________________________________________\n","Layer (type)                    Output Shape         Param #     Connected to                     \n","==================================================================================================\n","input (InputLayer)              [(None, 32, 32, 3)]  0                                            \n","__________________________________________________________________________________________________\n","zero_padding2d_31 (ZeroPadding2 (None, 38, 38, 3)    0           input[0][0]                      \n","__________________________________________________________________________________________________\n","conv2d_401 (Conv2D)             (None, 16, 16, 64)   9472        zero_padding2d_31[0][0]          \n","__________________________________________________________________________________________________\n","batch_normalization_402 (BatchN (None, 16, 16, 64)   256         conv2d_401[0][0]                 \n","__________________________________________________________________________________________________\n","activation_402 (Activation)     (None, 16, 16, 64)   0           batch_normalization_402[0][0]    \n","__________________________________________________________________________________________________\n","zero_padding2d_32 (ZeroPadding2 (None, 18, 18, 64)   0           activation_402[0][0]             \n","__________________________________________________________________________________________________\n","max_pooling2d_8 (MaxPooling2D)  (None, 8, 8, 64)     0           zero_padding2d_32[0][0]          \n","__________________________________________________________________________________________________\n","batch_normalization_403 (BatchN (None, 8, 8, 64)     256         max_pooling2d_8[0][0]            \n","__________________________________________________________________________________________________\n","activation_403 (Activation)     (None, 8, 8, 64)     0           batch_normalization_403[0][0]    \n","__________________________________________________________________________________________________\n","conv2d_402 (Conv2D)             (None, 8, 8, 128)    8320        activation_403[0][0]             \n","__________________________________________________________________________________________________\n","batch_normalization_404 (BatchN (None, 8, 8, 128)    512         conv2d_402[0][0]                 \n","__________________________________________________________________________________________________\n","activation_404 (Activation)     (None, 8, 8, 128)    0           batch_normalization_404[0][0]    \n","__________________________________________________________________________________________________\n","conv2d_403 (Conv2D)             (None, 8, 8, 32)     36896       activation_404[0][0]             \n","__________________________________________________________________________________________________\n","concatenate_186 (Concatenate)   (None, 8, 8, 96)     0           conv2d_403[0][0]                 \n","                                                                 max_pooling2d_8[0][0]            \n","__________________________________________________________________________________________________\n","batch_normalization_405 (BatchN (None, 8, 8, 96)     384         concatenate_186[0][0]            \n","__________________________________________________________________________________________________\n","activation_405 (Activation)     (None, 8, 8, 96)     0           batch_normalization_405[0][0]    \n","__________________________________________________________________________________________________\n","conv2d_404 (Conv2D)             (None, 8, 8, 128)    12416       activation_405[0][0]             \n","__________________________________________________________________________________________________\n","batch_normalization_406 (BatchN (None, 8, 8, 128)    512         conv2d_404[0][0]                 \n","__________________________________________________________________________________________________\n","activation_406 (Activation)     (None, 8, 8, 128)    0           batch_normalization_406[0][0]    \n","__________________________________________________________________________________________________\n","conv2d_405 (Conv2D)             (None, 8, 8, 32)     36896       activation_406[0][0]             \n","__________________________________________________________________________________________________\n","concatenate_187 (Concatenate)   (None, 8, 8, 128)    0           conv2d_405[0][0]                 \n","                                                                 concatenate_186[0][0]            \n","__________________________________________________________________________________________________\n","batch_normalization_407 (BatchN (None, 8, 8, 128)    512         concatenate_187[0][0]            \n","__________________________________________________________________________________________________\n","activation_407 (Activation)     (None, 8, 8, 128)    0           batch_normalization_407[0][0]    \n","__________________________________________________________________________________________________\n","conv2d_406 (Conv2D)             (None, 8, 8, 128)    16512       activation_407[0][0]             \n","__________________________________________________________________________________________________\n","batch_normalization_408 (BatchN (None, 8, 8, 128)    512         conv2d_406[0][0]                 \n","__________________________________________________________________________________________________\n","activation_408 (Activation)     (None, 8, 8, 128)    0           batch_normalization_408[0][0]    \n","__________________________________________________________________________________________________\n","conv2d_407 (Conv2D)             (None, 8, 8, 32)     36896       activation_408[0][0]             \n","__________________________________________________________________________________________________\n","concatenate_188 (Concatenate)   (None, 8, 8, 160)    0           conv2d_407[0][0]                 \n","                                                                 concatenate_187[0][0]            \n","__________________________________________________________________________________________________\n","batch_normalization_409 (BatchN (None, 8, 8, 160)    640         concatenate_188[0][0]            \n","__________________________________________________________________________________________________\n","activation_409 (Activation)     (None, 8, 8, 160)    0           batch_normalization_409[0][0]    \n","__________________________________________________________________________________________________\n","conv2d_408 (Conv2D)             (None, 8, 8, 128)    20608       activation_409[0][0]             \n","__________________________________________________________________________________________________\n","batch_normalization_410 (BatchN (None, 8, 8, 128)    512         conv2d_408[0][0]                 \n","__________________________________________________________________________________________________\n","activation_410 (Activation)     (None, 8, 8, 128)    0           batch_normalization_410[0][0]    \n","__________________________________________________________________________________________________\n","conv2d_409 (Conv2D)             (None, 8, 8, 32)     36896       activation_410[0][0]             \n","__________________________________________________________________________________________________\n","concatenate_189 (Concatenate)   (None, 8, 8, 192)    0           conv2d_409[0][0]                 \n","                                                                 concatenate_188[0][0]            \n","__________________________________________________________________________________________________\n","batch_normalization_411 (BatchN (None, 8, 8, 192)    768         concatenate_189[0][0]            \n","__________________________________________________________________________________________________\n","activation_411 (Activation)     (None, 8, 8, 192)    0           batch_normalization_411[0][0]    \n","__________________________________________________________________________________________________\n","conv2d_410 (Conv2D)             (None, 8, 8, 128)    24704       activation_411[0][0]             \n","__________________________________________________________________________________________________\n","batch_normalization_412 (BatchN (None, 8, 8, 128)    512         conv2d_410[0][0]                 \n","__________________________________________________________________________________________________\n","activation_412 (Activation)     (None, 8, 8, 128)    0           batch_normalization_412[0][0]    \n","__________________________________________________________________________________________________\n","conv2d_411 (Conv2D)             (None, 8, 8, 32)     36896       activation_412[0][0]             \n","__________________________________________________________________________________________________\n","concatenate_190 (Concatenate)   (None, 8, 8, 224)    0           conv2d_411[0][0]                 \n","                                                                 concatenate_189[0][0]            \n","__________________________________________________________________________________________________\n","batch_normalization_413 (BatchN (None, 8, 8, 224)    896         concatenate_190[0][0]            \n","__________________________________________________________________________________________________\n","activation_413 (Activation)     (None, 8, 8, 224)    0           batch_normalization_413[0][0]    \n","__________________________________________________________________________________________________\n","conv2d_412 (Conv2D)             (None, 8, 8, 128)    28800       activation_413[0][0]             \n","__________________________________________________________________________________________________\n","batch_normalization_414 (BatchN (None, 8, 8, 128)    512         conv2d_412[0][0]                 \n","__________________________________________________________________________________________________\n","activation_414 (Activation)     (None, 8, 8, 128)    0           batch_normalization_414[0][0]    \n","__________________________________________________________________________________________________\n","conv2d_413 (Conv2D)             (None, 8, 8, 32)     36896       activation_414[0][0]             \n","__________________________________________________________________________________________________\n","concatenate_191 (Concatenate)   (None, 8, 8, 256)    0           conv2d_413[0][0]                 \n","                                                                 concatenate_190[0][0]            \n","__________________________________________________________________________________________________\n","batch_normalization_415 (BatchN (None, 8, 8, 256)    1024        concatenate_191[0][0]            \n","__________________________________________________________________________________________________\n","activation_415 (Activation)     (None, 8, 8, 256)    0           batch_normalization_415[0][0]    \n","__________________________________________________________________________________________________\n","conv2d_414 (Conv2D)             (None, 8, 8, 128)    32896       activation_415[0][0]             \n","__________________________________________________________________________________________________\n","average_pooling2d_12 (AveragePo (None, 4, 4, 128)    0           conv2d_414[0][0]                 \n","__________________________________________________________________________________________________\n","batch_normalization_416 (BatchN (None, 4, 4, 128)    512         average_pooling2d_12[0][0]       \n","__________________________________________________________________________________________________\n","activation_416 (Activation)     (None, 4, 4, 128)    0           batch_normalization_416[0][0]    \n","__________________________________________________________________________________________________\n","conv2d_415 (Conv2D)             (None, 4, 4, 128)    16512       activation_416[0][0]             \n","__________________________________________________________________________________________________\n","batch_normalization_417 (BatchN (None, 4, 4, 128)    512         conv2d_415[0][0]                 \n","__________________________________________________________________________________________________\n","activation_417 (Activation)     (None, 4, 4, 128)    0           batch_normalization_417[0][0]    \n","__________________________________________________________________________________________________\n","conv2d_416 (Conv2D)             (None, 4, 4, 32)     36896       activation_417[0][0]             \n","__________________________________________________________________________________________________\n","concatenate_192 (Concatenate)   (None, 4, 4, 160)    0           conv2d_416[0][0]                 \n","                                                                 average_pooling2d_12[0][0]       \n","__________________________________________________________________________________________________\n","batch_normalization_418 (BatchN (None, 4, 4, 160)    640         concatenate_192[0][0]            \n","__________________________________________________________________________________________________\n","activation_418 (Activation)     (None, 4, 4, 160)    0           batch_normalization_418[0][0]    \n","__________________________________________________________________________________________________\n","conv2d_417 (Conv2D)             (None, 4, 4, 128)    20608       activation_418[0][0]             \n","__________________________________________________________________________________________________\n","batch_normalization_419 (BatchN (None, 4, 4, 128)    512         conv2d_417[0][0]                 \n","__________________________________________________________________________________________________\n","activation_419 (Activation)     (None, 4, 4, 128)    0           batch_normalization_419[0][0]    \n","__________________________________________________________________________________________________\n","conv2d_418 (Conv2D)             (None, 4, 4, 32)     36896       activation_419[0][0]             \n","__________________________________________________________________________________________________\n","concatenate_193 (Concatenate)   (None, 4, 4, 192)    0           conv2d_418[0][0]                 \n","                                                                 concatenate_192[0][0]            \n","__________________________________________________________________________________________________\n","batch_normalization_420 (BatchN (None, 4, 4, 192)    768         concatenate_193[0][0]            \n","__________________________________________________________________________________________________\n","activation_420 (Activation)     (None, 4, 4, 192)    0           batch_normalization_420[0][0]    \n","__________________________________________________________________________________________________\n","conv2d_419 (Conv2D)             (None, 4, 4, 128)    24704       activation_420[0][0]             \n","__________________________________________________________________________________________________\n","batch_normalization_421 (BatchN (None, 4, 4, 128)    512         conv2d_419[0][0]                 \n","__________________________________________________________________________________________________\n","activation_421 (Activation)     (None, 4, 4, 128)    0           batch_normalization_421[0][0]    \n","__________________________________________________________________________________________________\n","conv2d_420 (Conv2D)             (None, 4, 4, 32)     36896       activation_421[0][0]             \n","__________________________________________________________________________________________________\n","concatenate_194 (Concatenate)   (None, 4, 4, 224)    0           conv2d_420[0][0]                 \n","                                                                 concatenate_193[0][0]            \n","__________________________________________________________________________________________________\n","batch_normalization_422 (BatchN (None, 4, 4, 224)    896         concatenate_194[0][0]            \n","__________________________________________________________________________________________________\n","activation_422 (Activation)     (None, 4, 4, 224)    0           batch_normalization_422[0][0]    \n","__________________________________________________________________________________________________\n","conv2d_421 (Conv2D)             (None, 4, 4, 128)    28800       activation_422[0][0]             \n","__________________________________________________________________________________________________\n","batch_normalization_423 (BatchN (None, 4, 4, 128)    512         conv2d_421[0][0]                 \n","__________________________________________________________________________________________________\n","activation_423 (Activation)     (None, 4, 4, 128)    0           batch_normalization_423[0][0]    \n","__________________________________________________________________________________________________\n","conv2d_422 (Conv2D)             (None, 4, 4, 32)     36896       activation_423[0][0]             \n","__________________________________________________________________________________________________\n","concatenate_195 (Concatenate)   (None, 4, 4, 256)    0           conv2d_422[0][0]                 \n","                                                                 concatenate_194[0][0]            \n","__________________________________________________________________________________________________\n","batch_normalization_424 (BatchN (None, 4, 4, 256)    1024        concatenate_195[0][0]            \n","__________________________________________________________________________________________________\n","activation_424 (Activation)     (None, 4, 4, 256)    0           batch_normalization_424[0][0]    \n","__________________________________________________________________________________________________\n","conv2d_423 (Conv2D)             (None, 4, 4, 128)    32896       activation_424[0][0]             \n","__________________________________________________________________________________________________\n","batch_normalization_425 (BatchN (None, 4, 4, 128)    512         conv2d_423[0][0]                 \n","__________________________________________________________________________________________________\n","activation_425 (Activation)     (None, 4, 4, 128)    0           batch_normalization_425[0][0]    \n","__________________________________________________________________________________________________\n","conv2d_424 (Conv2D)             (None, 4, 4, 32)     36896       activation_425[0][0]             \n","__________________________________________________________________________________________________\n","concatenate_196 (Concatenate)   (None, 4, 4, 288)    0           conv2d_424[0][0]                 \n","                                                                 concatenate_195[0][0]            \n","__________________________________________________________________________________________________\n","batch_normalization_426 (BatchN (None, 4, 4, 288)    1152        concatenate_196[0][0]            \n","__________________________________________________________________________________________________\n","activation_426 (Activation)     (None, 4, 4, 288)    0           batch_normalization_426[0][0]    \n","__________________________________________________________________________________________________\n","conv2d_425 (Conv2D)             (None, 4, 4, 128)    36992       activation_426[0][0]             \n","__________________________________________________________________________________________________\n","batch_normalization_427 (BatchN (None, 4, 4, 128)    512         conv2d_425[0][0]                 \n","__________________________________________________________________________________________________\n","activation_427 (Activation)     (None, 4, 4, 128)    0           batch_normalization_427[0][0]    \n","__________________________________________________________________________________________________\n","conv2d_426 (Conv2D)             (None, 4, 4, 32)     36896       activation_427[0][0]             \n","__________________________________________________________________________________________________\n","concatenate_197 (Concatenate)   (None, 4, 4, 320)    0           conv2d_426[0][0]                 \n","                                                                 concatenate_196[0][0]            \n","__________________________________________________________________________________________________\n","batch_normalization_428 (BatchN (None, 4, 4, 320)    1280        concatenate_197[0][0]            \n","__________________________________________________________________________________________________\n","activation_428 (Activation)     (None, 4, 4, 320)    0           batch_normalization_428[0][0]    \n","__________________________________________________________________________________________________\n","conv2d_427 (Conv2D)             (None, 4, 4, 128)    41088       activation_428[0][0]             \n","__________________________________________________________________________________________________\n","batch_normalization_429 (BatchN (None, 4, 4, 128)    512         conv2d_427[0][0]                 \n","__________________________________________________________________________________________________\n","activation_429 (Activation)     (None, 4, 4, 128)    0           batch_normalization_429[0][0]    \n","__________________________________________________________________________________________________\n","conv2d_428 (Conv2D)             (None, 4, 4, 32)     36896       activation_429[0][0]             \n","__________________________________________________________________________________________________\n","concatenate_198 (Concatenate)   (None, 4, 4, 352)    0           conv2d_428[0][0]                 \n","                                                                 concatenate_197[0][0]            \n","__________________________________________________________________________________________________\n","batch_normalization_430 (BatchN (None, 4, 4, 352)    1408        concatenate_198[0][0]            \n","__________________________________________________________________________________________________\n","activation_430 (Activation)     (None, 4, 4, 352)    0           batch_normalization_430[0][0]    \n","__________________________________________________________________________________________________\n","conv2d_429 (Conv2D)             (None, 4, 4, 128)    45184       activation_430[0][0]             \n","__________________________________________________________________________________________________\n","batch_normalization_431 (BatchN (None, 4, 4, 128)    512         conv2d_429[0][0]                 \n","__________________________________________________________________________________________________\n","activation_431 (Activation)     (None, 4, 4, 128)    0           batch_normalization_431[0][0]    \n","__________________________________________________________________________________________________\n","conv2d_430 (Conv2D)             (None, 4, 4, 32)     36896       activation_431[0][0]             \n","__________________________________________________________________________________________________\n","concatenate_199 (Concatenate)   (None, 4, 4, 384)    0           conv2d_430[0][0]                 \n","                                                                 concatenate_198[0][0]            \n","__________________________________________________________________________________________________\n","batch_normalization_432 (BatchN (None, 4, 4, 384)    1536        concatenate_199[0][0]            \n","__________________________________________________________________________________________________\n","activation_432 (Activation)     (None, 4, 4, 384)    0           batch_normalization_432[0][0]    \n","__________________________________________________________________________________________________\n","conv2d_431 (Conv2D)             (None, 4, 4, 128)    49280       activation_432[0][0]             \n","__________________________________________________________________________________________________\n","batch_normalization_433 (BatchN (None, 4, 4, 128)    512         conv2d_431[0][0]                 \n","__________________________________________________________________________________________________\n","activation_433 (Activation)     (None, 4, 4, 128)    0           batch_normalization_433[0][0]    \n","__________________________________________________________________________________________________\n","conv2d_432 (Conv2D)             (None, 4, 4, 32)     36896       activation_433[0][0]             \n","__________________________________________________________________________________________________\n","concatenate_200 (Concatenate)   (None, 4, 4, 416)    0           conv2d_432[0][0]                 \n","                                                                 concatenate_199[0][0]            \n","__________________________________________________________________________________________________\n","batch_normalization_434 (BatchN (None, 4, 4, 416)    1664        concatenate_200[0][0]            \n","__________________________________________________________________________________________________\n","activation_434 (Activation)     (None, 4, 4, 416)    0           batch_normalization_434[0][0]    \n","__________________________________________________________________________________________________\n","conv2d_433 (Conv2D)             (None, 4, 4, 128)    53376       activation_434[0][0]             \n","__________________________________________________________________________________________________\n","batch_normalization_435 (BatchN (None, 4, 4, 128)    512         conv2d_433[0][0]                 \n","__________________________________________________________________________________________________\n","activation_435 (Activation)     (None, 4, 4, 128)    0           batch_normalization_435[0][0]    \n","__________________________________________________________________________________________________\n","conv2d_434 (Conv2D)             (None, 4, 4, 32)     36896       activation_435[0][0]             \n","__________________________________________________________________________________________________\n","concatenate_201 (Concatenate)   (None, 4, 4, 448)    0           conv2d_434[0][0]                 \n","                                                                 concatenate_200[0][0]            \n","__________________________________________________________________________________________________\n","batch_normalization_436 (BatchN (None, 4, 4, 448)    1792        concatenate_201[0][0]            \n","__________________________________________________________________________________________________\n","activation_436 (Activation)     (None, 4, 4, 448)    0           batch_normalization_436[0][0]    \n","__________________________________________________________________________________________________\n","conv2d_435 (Conv2D)             (None, 4, 4, 128)    57472       activation_436[0][0]             \n","__________________________________________________________________________________________________\n","batch_normalization_437 (BatchN (None, 4, 4, 128)    512         conv2d_435[0][0]                 \n","__________________________________________________________________________________________________\n","activation_437 (Activation)     (None, 4, 4, 128)    0           batch_normalization_437[0][0]    \n","__________________________________________________________________________________________________\n","conv2d_436 (Conv2D)             (None, 4, 4, 32)     36896       activation_437[0][0]             \n","__________________________________________________________________________________________________\n","concatenate_202 (Concatenate)   (None, 4, 4, 480)    0           conv2d_436[0][0]                 \n","                                                                 concatenate_201[0][0]            \n","__________________________________________________________________________________________________\n","batch_normalization_438 (BatchN (None, 4, 4, 480)    1920        concatenate_202[0][0]            \n","__________________________________________________________________________________________________\n","activation_438 (Activation)     (None, 4, 4, 480)    0           batch_normalization_438[0][0]    \n","__________________________________________________________________________________________________\n","conv2d_437 (Conv2D)             (None, 4, 4, 128)    61568       activation_438[0][0]             \n","__________________________________________________________________________________________________\n","batch_normalization_439 (BatchN (None, 4, 4, 128)    512         conv2d_437[0][0]                 \n","__________________________________________________________________________________________________\n","activation_439 (Activation)     (None, 4, 4, 128)    0           batch_normalization_439[0][0]    \n","__________________________________________________________________________________________________\n","conv2d_438 (Conv2D)             (None, 4, 4, 32)     36896       activation_439[0][0]             \n","__________________________________________________________________________________________________\n","concatenate_203 (Concatenate)   (None, 4, 4, 512)    0           conv2d_438[0][0]                 \n","                                                                 concatenate_202[0][0]            \n","__________________________________________________________________________________________________\n","batch_normalization_440 (BatchN (None, 4, 4, 512)    2048        concatenate_203[0][0]            \n","__________________________________________________________________________________________________\n","activation_440 (Activation)     (None, 4, 4, 512)    0           batch_normalization_440[0][0]    \n","__________________________________________________________________________________________________\n","conv2d_439 (Conv2D)             (None, 4, 4, 256)    131328      activation_440[0][0]             \n","__________________________________________________________________________________________________\n","average_pooling2d_13 (AveragePo (None, 2, 2, 256)    0           conv2d_439[0][0]                 \n","__________________________________________________________________________________________________\n","batch_normalization_441 (BatchN (None, 2, 2, 256)    1024        average_pooling2d_13[0][0]       \n","__________________________________________________________________________________________________\n","activation_441 (Activation)     (None, 2, 2, 256)    0           batch_normalization_441[0][0]    \n","__________________________________________________________________________________________________\n","conv2d_440 (Conv2D)             (None, 2, 2, 256)    65792       activation_441[0][0]             \n","__________________________________________________________________________________________________\n","batch_normalization_442 (BatchN (None, 2, 2, 256)    1024        conv2d_440[0][0]                 \n","__________________________________________________________________________________________________\n","activation_442 (Activation)     (None, 2, 2, 256)    0           batch_normalization_442[0][0]    \n","__________________________________________________________________________________________________\n","conv2d_441 (Conv2D)             (None, 2, 2, 32)     73760       activation_442[0][0]             \n","__________________________________________________________________________________________________\n","concatenate_204 (Concatenate)   (None, 2, 2, 288)    0           conv2d_441[0][0]                 \n","                                                                 average_pooling2d_13[0][0]       \n","__________________________________________________________________________________________________\n","batch_normalization_443 (BatchN (None, 2, 2, 288)    1152        concatenate_204[0][0]            \n","__________________________________________________________________________________________________\n","activation_443 (Activation)     (None, 2, 2, 288)    0           batch_normalization_443[0][0]    \n","__________________________________________________________________________________________________\n","conv2d_442 (Conv2D)             (None, 2, 2, 256)    73984       activation_443[0][0]             \n","__________________________________________________________________________________________________\n","batch_normalization_444 (BatchN (None, 2, 2, 256)    1024        conv2d_442[0][0]                 \n","__________________________________________________________________________________________________\n","activation_444 (Activation)     (None, 2, 2, 256)    0           batch_normalization_444[0][0]    \n","__________________________________________________________________________________________________\n","conv2d_443 (Conv2D)             (None, 2, 2, 32)     73760       activation_444[0][0]             \n","__________________________________________________________________________________________________\n","concatenate_205 (Concatenate)   (None, 2, 2, 320)    0           conv2d_443[0][0]                 \n","                                                                 concatenate_204[0][0]            \n","__________________________________________________________________________________________________\n","batch_normalization_445 (BatchN (None, 2, 2, 320)    1280        concatenate_205[0][0]            \n","__________________________________________________________________________________________________\n","activation_445 (Activation)     (None, 2, 2, 320)    0           batch_normalization_445[0][0]    \n","__________________________________________________________________________________________________\n","conv2d_444 (Conv2D)             (None, 2, 2, 256)    82176       activation_445[0][0]             \n","__________________________________________________________________________________________________\n","batch_normalization_446 (BatchN (None, 2, 2, 256)    1024        conv2d_444[0][0]                 \n","__________________________________________________________________________________________________\n","activation_446 (Activation)     (None, 2, 2, 256)    0           batch_normalization_446[0][0]    \n","__________________________________________________________________________________________________\n","conv2d_445 (Conv2D)             (None, 2, 2, 32)     73760       activation_446[0][0]             \n","__________________________________________________________________________________________________\n","concatenate_206 (Concatenate)   (None, 2, 2, 352)    0           conv2d_445[0][0]                 \n","                                                                 concatenate_205[0][0]            \n","__________________________________________________________________________________________________\n","batch_normalization_447 (BatchN (None, 2, 2, 352)    1408        concatenate_206[0][0]            \n","__________________________________________________________________________________________________\n","activation_447 (Activation)     (None, 2, 2, 352)    0           batch_normalization_447[0][0]    \n","__________________________________________________________________________________________________\n","conv2d_446 (Conv2D)             (None, 2, 2, 256)    90368       activation_447[0][0]             \n","__________________________________________________________________________________________________\n","batch_normalization_448 (BatchN (None, 2, 2, 256)    1024        conv2d_446[0][0]                 \n","__________________________________________________________________________________________________\n","activation_448 (Activation)     (None, 2, 2, 256)    0           batch_normalization_448[0][0]    \n","__________________________________________________________________________________________________\n","conv2d_447 (Conv2D)             (None, 2, 2, 32)     73760       activation_448[0][0]             \n","__________________________________________________________________________________________________\n","concatenate_207 (Concatenate)   (None, 2, 2, 384)    0           conv2d_447[0][0]                 \n","                                                                 concatenate_206[0][0]            \n","__________________________________________________________________________________________________\n","batch_normalization_449 (BatchN (None, 2, 2, 384)    1536        concatenate_207[0][0]            \n","__________________________________________________________________________________________________\n","activation_449 (Activation)     (None, 2, 2, 384)    0           batch_normalization_449[0][0]    \n","__________________________________________________________________________________________________\n","conv2d_448 (Conv2D)             (None, 2, 2, 256)    98560       activation_449[0][0]             \n","__________________________________________________________________________________________________\n","batch_normalization_450 (BatchN (None, 2, 2, 256)    1024        conv2d_448[0][0]                 \n","__________________________________________________________________________________________________\n","activation_450 (Activation)     (None, 2, 2, 256)    0           batch_normalization_450[0][0]    \n","__________________________________________________________________________________________________\n","conv2d_449 (Conv2D)             (None, 2, 2, 32)     73760       activation_450[0][0]             \n","__________________________________________________________________________________________________\n","concatenate_208 (Concatenate)   (None, 2, 2, 416)    0           conv2d_449[0][0]                 \n","                                                                 concatenate_207[0][0]            \n","__________________________________________________________________________________________________\n","batch_normalization_451 (BatchN (None, 2, 2, 416)    1664        concatenate_208[0][0]            \n","__________________________________________________________________________________________________\n","activation_451 (Activation)     (None, 2, 2, 416)    0           batch_normalization_451[0][0]    \n","__________________________________________________________________________________________________\n","conv2d_450 (Conv2D)             (None, 2, 2, 256)    106752      activation_451[0][0]             \n","__________________________________________________________________________________________________\n","batch_normalization_452 (BatchN (None, 2, 2, 256)    1024        conv2d_450[0][0]                 \n","__________________________________________________________________________________________________\n","activation_452 (Activation)     (None, 2, 2, 256)    0           batch_normalization_452[0][0]    \n","__________________________________________________________________________________________________\n","conv2d_451 (Conv2D)             (None, 2, 2, 32)     73760       activation_452[0][0]             \n","__________________________________________________________________________________________________\n","concatenate_209 (Concatenate)   (None, 2, 2, 448)    0           conv2d_451[0][0]                 \n","                                                                 concatenate_208[0][0]            \n","__________________________________________________________________________________________________\n","batch_normalization_453 (BatchN (None, 2, 2, 448)    1792        concatenate_209[0][0]            \n","__________________________________________________________________________________________________\n","activation_453 (Activation)     (None, 2, 2, 448)    0           batch_normalization_453[0][0]    \n","__________________________________________________________________________________________________\n","conv2d_452 (Conv2D)             (None, 2, 2, 256)    114944      activation_453[0][0]             \n","__________________________________________________________________________________________________\n","batch_normalization_454 (BatchN (None, 2, 2, 256)    1024        conv2d_452[0][0]                 \n","__________________________________________________________________________________________________\n","activation_454 (Activation)     (None, 2, 2, 256)    0           batch_normalization_454[0][0]    \n","__________________________________________________________________________________________________\n","conv2d_453 (Conv2D)             (None, 2, 2, 32)     73760       activation_454[0][0]             \n","__________________________________________________________________________________________________\n","concatenate_210 (Concatenate)   (None, 2, 2, 480)    0           conv2d_453[0][0]                 \n","                                                                 concatenate_209[0][0]            \n","__________________________________________________________________________________________________\n","batch_normalization_455 (BatchN (None, 2, 2, 480)    1920        concatenate_210[0][0]            \n","__________________________________________________________________________________________________\n","activation_455 (Activation)     (None, 2, 2, 480)    0           batch_normalization_455[0][0]    \n","__________________________________________________________________________________________________\n","conv2d_454 (Conv2D)             (None, 2, 2, 256)    123136      activation_455[0][0]             \n","__________________________________________________________________________________________________\n","batch_normalization_456 (BatchN (None, 2, 2, 256)    1024        conv2d_454[0][0]                 \n","__________________________________________________________________________________________________\n","activation_456 (Activation)     (None, 2, 2, 256)    0           batch_normalization_456[0][0]    \n","__________________________________________________________________________________________________\n","conv2d_455 (Conv2D)             (None, 2, 2, 32)     73760       activation_456[0][0]             \n","__________________________________________________________________________________________________\n","concatenate_211 (Concatenate)   (None, 2, 2, 512)    0           conv2d_455[0][0]                 \n","                                                                 concatenate_210[0][0]            \n","__________________________________________________________________________________________________\n","batch_normalization_457 (BatchN (None, 2, 2, 512)    2048        concatenate_211[0][0]            \n","__________________________________________________________________________________________________\n","activation_457 (Activation)     (None, 2, 2, 512)    0           batch_normalization_457[0][0]    \n","__________________________________________________________________________________________________\n","conv2d_456 (Conv2D)             (None, 2, 2, 256)    131328      activation_457[0][0]             \n","__________________________________________________________________________________________________\n","batch_normalization_458 (BatchN (None, 2, 2, 256)    1024        conv2d_456[0][0]                 \n","__________________________________________________________________________________________________\n","activation_458 (Activation)     (None, 2, 2, 256)    0           batch_normalization_458[0][0]    \n","__________________________________________________________________________________________________\n","conv2d_457 (Conv2D)             (None, 2, 2, 32)     73760       activation_458[0][0]             \n","__________________________________________________________________________________________________\n","concatenate_212 (Concatenate)   (None, 2, 2, 544)    0           conv2d_457[0][0]                 \n","                                                                 concatenate_211[0][0]            \n","__________________________________________________________________________________________________\n","batch_normalization_459 (BatchN (None, 2, 2, 544)    2176        concatenate_212[0][0]            \n","__________________________________________________________________________________________________\n","activation_459 (Activation)     (None, 2, 2, 544)    0           batch_normalization_459[0][0]    \n","__________________________________________________________________________________________________\n","conv2d_458 (Conv2D)             (None, 2, 2, 256)    139520      activation_459[0][0]             \n","__________________________________________________________________________________________________\n","batch_normalization_460 (BatchN (None, 2, 2, 256)    1024        conv2d_458[0][0]                 \n","__________________________________________________________________________________________________\n","activation_460 (Activation)     (None, 2, 2, 256)    0           batch_normalization_460[0][0]    \n","__________________________________________________________________________________________________\n","conv2d_459 (Conv2D)             (None, 2, 2, 32)     73760       activation_460[0][0]             \n","__________________________________________________________________________________________________\n","concatenate_213 (Concatenate)   (None, 2, 2, 576)    0           conv2d_459[0][0]                 \n","                                                                 concatenate_212[0][0]            \n","__________________________________________________________________________________________________\n","batch_normalization_461 (BatchN (None, 2, 2, 576)    2304        concatenate_213[0][0]            \n","__________________________________________________________________________________________________\n","activation_461 (Activation)     (None, 2, 2, 576)    0           batch_normalization_461[0][0]    \n","__________________________________________________________________________________________________\n","conv2d_460 (Conv2D)             (None, 2, 2, 256)    147712      activation_461[0][0]             \n","__________________________________________________________________________________________________\n","batch_normalization_462 (BatchN (None, 2, 2, 256)    1024        conv2d_460[0][0]                 \n","__________________________________________________________________________________________________\n","activation_462 (Activation)     (None, 2, 2, 256)    0           batch_normalization_462[0][0]    \n","__________________________________________________________________________________________________\n","conv2d_461 (Conv2D)             (None, 2, 2, 32)     73760       activation_462[0][0]             \n","__________________________________________________________________________________________________\n","concatenate_214 (Concatenate)   (None, 2, 2, 608)    0           conv2d_461[0][0]                 \n","                                                                 concatenate_213[0][0]            \n","__________________________________________________________________________________________________\n","batch_normalization_463 (BatchN (None, 2, 2, 608)    2432        concatenate_214[0][0]            \n","__________________________________________________________________________________________________\n","activation_463 (Activation)     (None, 2, 2, 608)    0           batch_normalization_463[0][0]    \n","__________________________________________________________________________________________________\n","conv2d_462 (Conv2D)             (None, 2, 2, 256)    155904      activation_463[0][0]             \n","__________________________________________________________________________________________________\n","batch_normalization_464 (BatchN (None, 2, 2, 256)    1024        conv2d_462[0][0]                 \n","__________________________________________________________________________________________________\n","activation_464 (Activation)     (None, 2, 2, 256)    0           batch_normalization_464[0][0]    \n","__________________________________________________________________________________________________\n","conv2d_463 (Conv2D)             (None, 2, 2, 32)     73760       activation_464[0][0]             \n","__________________________________________________________________________________________________\n","concatenate_215 (Concatenate)   (None, 2, 2, 640)    0           conv2d_463[0][0]                 \n","                                                                 concatenate_214[0][0]            \n","__________________________________________________________________________________________________\n","batch_normalization_465 (BatchN (None, 2, 2, 640)    2560        concatenate_215[0][0]            \n","__________________________________________________________________________________________________\n","activation_465 (Activation)     (None, 2, 2, 640)    0           batch_normalization_465[0][0]    \n","__________________________________________________________________________________________________\n","conv2d_464 (Conv2D)             (None, 2, 2, 512)    328192      activation_465[0][0]             \n","__________________________________________________________________________________________________\n","average_pooling2d_14 (AveragePo (None, 1, 1, 512)    0           conv2d_464[0][0]                 \n","__________________________________________________________________________________________________\n","batch_normalization_466 (BatchN (None, 1, 1, 512)    2048        average_pooling2d_14[0][0]       \n","__________________________________________________________________________________________________\n","activation_466 (Activation)     (None, 1, 1, 512)    0           batch_normalization_466[0][0]    \n","__________________________________________________________________________________________________\n","conv2d_465 (Conv2D)             (None, 1, 1, 128)    65664       activation_466[0][0]             \n","__________________________________________________________________________________________________\n","batch_normalization_467 (BatchN (None, 1, 1, 128)    512         conv2d_465[0][0]                 \n","__________________________________________________________________________________________________\n","activation_467 (Activation)     (None, 1, 1, 128)    0           batch_normalization_467[0][0]    \n","__________________________________________________________________________________________________\n","conv2d_466 (Conv2D)             (None, 1, 1, 32)     36896       activation_467[0][0]             \n","__________________________________________________________________________________________________\n","concatenate_216 (Concatenate)   (None, 1, 1, 544)    0           conv2d_466[0][0]                 \n","                                                                 average_pooling2d_14[0][0]       \n","__________________________________________________________________________________________________\n","batch_normalization_468 (BatchN (None, 1, 1, 544)    2176        concatenate_216[0][0]            \n","__________________________________________________________________________________________________\n","activation_468 (Activation)     (None, 1, 1, 544)    0           batch_normalization_468[0][0]    \n","__________________________________________________________________________________________________\n","conv2d_467 (Conv2D)             (None, 1, 1, 128)    69760       activation_468[0][0]             \n","__________________________________________________________________________________________________\n","batch_normalization_469 (BatchN (None, 1, 1, 128)    512         conv2d_467[0][0]                 \n","__________________________________________________________________________________________________\n","activation_469 (Activation)     (None, 1, 1, 128)    0           batch_normalization_469[0][0]    \n","__________________________________________________________________________________________________\n","conv2d_468 (Conv2D)             (None, 1, 1, 32)     36896       activation_469[0][0]             \n","__________________________________________________________________________________________________\n","concatenate_217 (Concatenate)   (None, 1, 1, 576)    0           conv2d_468[0][0]                 \n","                                                                 concatenate_216[0][0]            \n","__________________________________________________________________________________________________\n","batch_normalization_470 (BatchN (None, 1, 1, 576)    2304        concatenate_217[0][0]            \n","__________________________________________________________________________________________________\n","activation_470 (Activation)     (None, 1, 1, 576)    0           batch_normalization_470[0][0]    \n","__________________________________________________________________________________________________\n","conv2d_469 (Conv2D)             (None, 1, 1, 128)    73856       activation_470[0][0]             \n","__________________________________________________________________________________________________\n","batch_normalization_471 (BatchN (None, 1, 1, 128)    512         conv2d_469[0][0]                 \n","__________________________________________________________________________________________________\n","activation_471 (Activation)     (None, 1, 1, 128)    0           batch_normalization_471[0][0]    \n","__________________________________________________________________________________________________\n","conv2d_470 (Conv2D)             (None, 1, 1, 32)     36896       activation_471[0][0]             \n","__________________________________________________________________________________________________\n","concatenate_218 (Concatenate)   (None, 1, 1, 608)    0           conv2d_470[0][0]                 \n","                                                                 concatenate_217[0][0]            \n","__________________________________________________________________________________________________\n","batch_normalization_472 (BatchN (None, 1, 1, 608)    2432        concatenate_218[0][0]            \n","__________________________________________________________________________________________________\n","activation_472 (Activation)     (None, 1, 1, 608)    0           batch_normalization_472[0][0]    \n","__________________________________________________________________________________________________\n","conv2d_471 (Conv2D)             (None, 1, 1, 128)    77952       activation_472[0][0]             \n","__________________________________________________________________________________________________\n","batch_normalization_473 (BatchN (None, 1, 1, 128)    512         conv2d_471[0][0]                 \n","__________________________________________________________________________________________________\n","activation_473 (Activation)     (None, 1, 1, 128)    0           batch_normalization_473[0][0]    \n","__________________________________________________________________________________________________\n","conv2d_472 (Conv2D)             (None, 1, 1, 32)     36896       activation_473[0][0]             \n","__________________________________________________________________________________________________\n","concatenate_219 (Concatenate)   (None, 1, 1, 640)    0           conv2d_472[0][0]                 \n","                                                                 concatenate_218[0][0]            \n","__________________________________________________________________________________________________\n","batch_normalization_474 (BatchN (None, 1, 1, 640)    2560        concatenate_219[0][0]            \n","__________________________________________________________________________________________________\n","activation_474 (Activation)     (None, 1, 1, 640)    0           batch_normalization_474[0][0]    \n","__________________________________________________________________________________________________\n","conv2d_473 (Conv2D)             (None, 1, 1, 128)    82048       activation_474[0][0]             \n","__________________________________________________________________________________________________\n","batch_normalization_475 (BatchN (None, 1, 1, 128)    512         conv2d_473[0][0]                 \n","__________________________________________________________________________________________________\n","activation_475 (Activation)     (None, 1, 1, 128)    0           batch_normalization_475[0][0]    \n","__________________________________________________________________________________________________\n","conv2d_474 (Conv2D)             (None, 1, 1, 32)     36896       activation_475[0][0]             \n","__________________________________________________________________________________________________\n","concatenate_220 (Concatenate)   (None, 1, 1, 672)    0           conv2d_474[0][0]                 \n","                                                                 concatenate_219[0][0]            \n","__________________________________________________________________________________________________\n","batch_normalization_476 (BatchN (None, 1, 1, 672)    2688        concatenate_220[0][0]            \n","__________________________________________________________________________________________________\n","activation_476 (Activation)     (None, 1, 1, 672)    0           batch_normalization_476[0][0]    \n","__________________________________________________________________________________________________\n","conv2d_475 (Conv2D)             (None, 1, 1, 128)    86144       activation_476[0][0]             \n","__________________________________________________________________________________________________\n","batch_normalization_477 (BatchN (None, 1, 1, 128)    512         conv2d_475[0][0]                 \n","__________________________________________________________________________________________________\n","activation_477 (Activation)     (None, 1, 1, 128)    0           batch_normalization_477[0][0]    \n","__________________________________________________________________________________________________\n","conv2d_476 (Conv2D)             (None, 1, 1, 32)     36896       activation_477[0][0]             \n","__________________________________________________________________________________________________\n","concatenate_221 (Concatenate)   (None, 1, 1, 704)    0           conv2d_476[0][0]                 \n","                                                                 concatenate_220[0][0]            \n","__________________________________________________________________________________________________\n","batch_normalization_478 (BatchN (None, 1, 1, 704)    2816        concatenate_221[0][0]            \n","__________________________________________________________________________________________________\n","activation_478 (Activation)     (None, 1, 1, 704)    0           batch_normalization_478[0][0]    \n","__________________________________________________________________________________________________\n","conv2d_477 (Conv2D)             (None, 1, 1, 128)    90240       activation_478[0][0]             \n","__________________________________________________________________________________________________\n","batch_normalization_479 (BatchN (None, 1, 1, 128)    512         conv2d_477[0][0]                 \n","__________________________________________________________________________________________________\n","activation_479 (Activation)     (None, 1, 1, 128)    0           batch_normalization_479[0][0]    \n","__________________________________________________________________________________________________\n","conv2d_478 (Conv2D)             (None, 1, 1, 32)     36896       activation_479[0][0]             \n","__________________________________________________________________________________________________\n","concatenate_222 (Concatenate)   (None, 1, 1, 736)    0           conv2d_478[0][0]                 \n","                                                                 concatenate_221[0][0]            \n","__________________________________________________________________________________________________\n","batch_normalization_480 (BatchN (None, 1, 1, 736)    2944        concatenate_222[0][0]            \n","__________________________________________________________________________________________________\n","activation_480 (Activation)     (None, 1, 1, 736)    0           batch_normalization_480[0][0]    \n","__________________________________________________________________________________________________\n","conv2d_479 (Conv2D)             (None, 1, 1, 128)    94336       activation_480[0][0]             \n","__________________________________________________________________________________________________\n","batch_normalization_481 (BatchN (None, 1, 1, 128)    512         conv2d_479[0][0]                 \n","__________________________________________________________________________________________________\n","activation_481 (Activation)     (None, 1, 1, 128)    0           batch_normalization_481[0][0]    \n","__________________________________________________________________________________________________\n","conv2d_480 (Conv2D)             (None, 1, 1, 32)     36896       activation_481[0][0]             \n","__________________________________________________________________________________________________\n","concatenate_223 (Concatenate)   (None, 1, 1, 768)    0           conv2d_480[0][0]                 \n","                                                                 concatenate_222[0][0]            \n","__________________________________________________________________________________________________\n","batch_normalization_482 (BatchN (None, 1, 1, 768)    3072        concatenate_223[0][0]            \n","__________________________________________________________________________________________________\n","activation_482 (Activation)     (None, 1, 1, 768)    0           batch_normalization_482[0][0]    \n","__________________________________________________________________________________________________\n","conv2d_481 (Conv2D)             (None, 1, 1, 128)    98432       activation_482[0][0]             \n","__________________________________________________________________________________________________\n","batch_normalization_483 (BatchN (None, 1, 1, 128)    512         conv2d_481[0][0]                 \n","__________________________________________________________________________________________________\n","activation_483 (Activation)     (None, 1, 1, 128)    0           batch_normalization_483[0][0]    \n","__________________________________________________________________________________________________\n","conv2d_482 (Conv2D)             (None, 1, 1, 32)     36896       activation_483[0][0]             \n","__________________________________________________________________________________________________\n","concatenate_224 (Concatenate)   (None, 1, 1, 800)    0           conv2d_482[0][0]                 \n","                                                                 concatenate_223[0][0]            \n","__________________________________________________________________________________________________\n","batch_normalization_484 (BatchN (None, 1, 1, 800)    3200        concatenate_224[0][0]            \n","__________________________________________________________________________________________________\n","activation_484 (Activation)     (None, 1, 1, 800)    0           batch_normalization_484[0][0]    \n","__________________________________________________________________________________________________\n","conv2d_483 (Conv2D)             (None, 1, 1, 128)    102528      activation_484[0][0]             \n","__________________________________________________________________________________________________\n","batch_normalization_485 (BatchN (None, 1, 1, 128)    512         conv2d_483[0][0]                 \n","__________________________________________________________________________________________________\n","activation_485 (Activation)     (None, 1, 1, 128)    0           batch_normalization_485[0][0]    \n","__________________________________________________________________________________________________\n","conv2d_484 (Conv2D)             (None, 1, 1, 32)     36896       activation_485[0][0]             \n","__________________________________________________________________________________________________\n","concatenate_225 (Concatenate)   (None, 1, 1, 832)    0           conv2d_484[0][0]                 \n","                                                                 concatenate_224[0][0]            \n","__________________________________________________________________________________________________\n","batch_normalization_486 (BatchN (None, 1, 1, 832)    3328        concatenate_225[0][0]            \n","__________________________________________________________________________________________________\n","activation_486 (Activation)     (None, 1, 1, 832)    0           batch_normalization_486[0][0]    \n","__________________________________________________________________________________________________\n","conv2d_485 (Conv2D)             (None, 1, 1, 128)    106624      activation_486[0][0]             \n","__________________________________________________________________________________________________\n","batch_normalization_487 (BatchN (None, 1, 1, 128)    512         conv2d_485[0][0]                 \n","__________________________________________________________________________________________________\n","activation_487 (Activation)     (None, 1, 1, 128)    0           batch_normalization_487[0][0]    \n","__________________________________________________________________________________________________\n","conv2d_486 (Conv2D)             (None, 1, 1, 32)     36896       activation_487[0][0]             \n","__________________________________________________________________________________________________\n","concatenate_226 (Concatenate)   (None, 1, 1, 864)    0           conv2d_486[0][0]                 \n","                                                                 concatenate_225[0][0]            \n","__________________________________________________________________________________________________\n","batch_normalization_488 (BatchN (None, 1, 1, 864)    3456        concatenate_226[0][0]            \n","__________________________________________________________________________________________________\n","activation_488 (Activation)     (None, 1, 1, 864)    0           batch_normalization_488[0][0]    \n","__________________________________________________________________________________________________\n","conv2d_487 (Conv2D)             (None, 1, 1, 128)    110720      activation_488[0][0]             \n","__________________________________________________________________________________________________\n","batch_normalization_489 (BatchN (None, 1, 1, 128)    512         conv2d_487[0][0]                 \n","__________________________________________________________________________________________________\n","activation_489 (Activation)     (None, 1, 1, 128)    0           batch_normalization_489[0][0]    \n","__________________________________________________________________________________________________\n","conv2d_488 (Conv2D)             (None, 1, 1, 32)     36896       activation_489[0][0]             \n","__________________________________________________________________________________________________\n","concatenate_227 (Concatenate)   (None, 1, 1, 896)    0           conv2d_488[0][0]                 \n","                                                                 concatenate_226[0][0]            \n","__________________________________________________________________________________________________\n","batch_normalization_490 (BatchN (None, 1, 1, 896)    3584        concatenate_227[0][0]            \n","__________________________________________________________________________________________________\n","activation_490 (Activation)     (None, 1, 1, 896)    0           batch_normalization_490[0][0]    \n","__________________________________________________________________________________________________\n","conv2d_489 (Conv2D)             (None, 1, 1, 128)    114816      activation_490[0][0]             \n","__________________________________________________________________________________________________\n","batch_normalization_491 (BatchN (None, 1, 1, 128)    512         conv2d_489[0][0]                 \n","__________________________________________________________________________________________________\n","activation_491 (Activation)     (None, 1, 1, 128)    0           batch_normalization_491[0][0]    \n","__________________________________________________________________________________________________\n","conv2d_490 (Conv2D)             (None, 1, 1, 32)     36896       activation_491[0][0]             \n","__________________________________________________________________________________________________\n","concatenate_228 (Concatenate)   (None, 1, 1, 928)    0           conv2d_490[0][0]                 \n","                                                                 concatenate_227[0][0]            \n","__________________________________________________________________________________________________\n","batch_normalization_492 (BatchN (None, 1, 1, 928)    3712        concatenate_228[0][0]            \n","__________________________________________________________________________________________________\n","activation_492 (Activation)     (None, 1, 1, 928)    0           batch_normalization_492[0][0]    \n","__________________________________________________________________________________________________\n","conv2d_491 (Conv2D)             (None, 1, 1, 128)    118912      activation_492[0][0]             \n","__________________________________________________________________________________________________\n","batch_normalization_493 (BatchN (None, 1, 1, 128)    512         conv2d_491[0][0]                 \n","__________________________________________________________________________________________________\n","activation_493 (Activation)     (None, 1, 1, 128)    0           batch_normalization_493[0][0]    \n","__________________________________________________________________________________________________\n","conv2d_492 (Conv2D)             (None, 1, 1, 32)     36896       activation_493[0][0]             \n","__________________________________________________________________________________________________\n","concatenate_229 (Concatenate)   (None, 1, 1, 960)    0           conv2d_492[0][0]                 \n","                                                                 concatenate_228[0][0]            \n","__________________________________________________________________________________________________\n","batch_normalization_494 (BatchN (None, 1, 1, 960)    3840        concatenate_229[0][0]            \n","__________________________________________________________________________________________________\n","activation_494 (Activation)     (None, 1, 1, 960)    0           batch_normalization_494[0][0]    \n","__________________________________________________________________________________________________\n","conv2d_493 (Conv2D)             (None, 1, 1, 128)    123008      activation_494[0][0]             \n","__________________________________________________________________________________________________\n","batch_normalization_495 (BatchN (None, 1, 1, 128)    512         conv2d_493[0][0]                 \n","__________________________________________________________________________________________________\n","activation_495 (Activation)     (None, 1, 1, 128)    0           batch_normalization_495[0][0]    \n","__________________________________________________________________________________________________\n","conv2d_494 (Conv2D)             (None, 1, 1, 32)     36896       activation_495[0][0]             \n","__________________________________________________________________________________________________\n","concatenate_230 (Concatenate)   (None, 1, 1, 992)    0           conv2d_494[0][0]                 \n","                                                                 concatenate_229[0][0]            \n","__________________________________________________________________________________________________\n","batch_normalization_496 (BatchN (None, 1, 1, 992)    3968        concatenate_230[0][0]            \n","__________________________________________________________________________________________________\n","activation_496 (Activation)     (None, 1, 1, 992)    0           batch_normalization_496[0][0]    \n","__________________________________________________________________________________________________\n","conv2d_495 (Conv2D)             (None, 1, 1, 128)    127104      activation_496[0][0]             \n","__________________________________________________________________________________________________\n","batch_normalization_497 (BatchN (None, 1, 1, 128)    512         conv2d_495[0][0]                 \n","__________________________________________________________________________________________________\n","activation_497 (Activation)     (None, 1, 1, 128)    0           batch_normalization_497[0][0]    \n","__________________________________________________________________________________________________\n","conv2d_496 (Conv2D)             (None, 1, 1, 32)     36896       activation_497[0][0]             \n","__________________________________________________________________________________________________\n","concatenate_231 (Concatenate)   (None, 1, 1, 1024)   0           conv2d_496[0][0]                 \n","                                                                 concatenate_230[0][0]            \n","__________________________________________________________________________________________________\n","batch_normalization_498 (BatchN (None, 1, 1, 1024)   4096        concatenate_231[0][0]            \n","__________________________________________________________________________________________________\n","activation_498 (Activation)     (None, 1, 1, 1024)   0           batch_normalization_498[0][0]    \n","==================================================================================================\n","Total params: 6,220,224\n","Trainable params: 6,156,928\n","Non-trainable params: 63,296\n","__________________________________________________________________________________________________\n"],"name":"stdout"}]},{"cell_type":"code","metadata":{"
…
